BipedalWalker-v3_weights.pth (torch, 463311 bytes, 8 tensors)

hidden1.weight f4 [300, 74]
000000 15 f2 d2 be 44 d0 87 bf 70 73 81 3f 71 69 5b 3e
       -0.4120032 -1.0610433 1.0113354 0.21426941
000010 cc 55 91 3e c6 48 4a 3e a7 e6 92 be bd ad ba ba
       0.2838577 0.19754323 -0.286916 -0.0014242452
000020 f6 bd 70 bd 70 74 2f bf 11 1f 8b be 25 d6 c4 3e
       -0.05877491 -0.68537045 -0.2717214 0.3844463
000030 1f 72 5a be 4d c4 18 3e a7 e1 9c be 76 8e 4d be
       -0.21332596 0.14918633 -0.3064091 -0.20073876
000040 b3 30 c7 3c 3f 78 d5 bc 92 cb d5 be c5 37 ac 3d
       0.024315214 -0.026058314 -0.41756874 0.08409075
000050 e0 e8 89 be 67 4f 43 3e f5 99 08 3c 88 81 45 3e
       -0.26935482 0.19073258 0.0083374875 0.19287694
000060 d6 43 01 3e 44 0e 75 bd ca 35 d5 3c c6 59 05 3d
       0.12623534 -0.059828058 0.026026625 0.032556318
000070 b7 98 f7 be 22 b9 ed 3d 18 56 cf be 3a 58 cc 3d
       -0.483587 0.11607577 -0.40495372 0.099777654
000080 c5 e0 ba be 65 1c 25 3e 86 0b 37 bf 90 2f 5a 3d
       -0.3649961 0.16124113 -0.7150196 0.053268015
000090 b4 b1 63 bd 5c e8 63 3e e0 cd 0d 3f 4b 55 4e be
       -0.055589393 0.22256607 0.55392265 -0.20149724
0000a0 04 4a 24 3e 94 17 b7 be ab 25 2f bf 91 ef 15 bf
       0.1604386 -0.35760176 -0.6841685 -0.58568674
0000b0 22 2c 89 be b5 ad c8 be 9a ef 68 bd 24 e7 7a be
       -0.26791483 -0.39195028 -0.056869127 -0.24502236
0000c0 b3 72 ce 3d 1f 77 cf 3e 2a 9c 38 bf 7a d9 4a 3d
       0.10080471 0.4052057 -0.7211329 0.049523808
0000d0 08 a3 42 bf 3f c9 17 3f 04 41 21 3f 69 a3 8e 3e
       -0.76030016 0.5929145 0.6298983 0.27859047
0000e0 d1 8c 4d bd 52 19 8d 3e d5 20 8c 3e 88 32 dd bd
       -0.05018312 0.2755838 0.273688 -0.10800654
0000f0 9d 4f 32 3e 6f 0f 65 3d 44 c6 31 3e c0 fa 8f 3e
       0.17413183 0.05592292 0.17360789 0.28120995
000100 6b 86 3a bf 51 64 01 3f 1b 91 fc 3d 93 2e c7 3e
       -0.72861356 0.50543696 0.12332364 0.3890272
000110 6b a8 d0 3c 9e 70 50 be 71 3a f4 3e 07 da db 3e
       0.025470933 -0.2035546 0.47700837 0.4293978
000120 b4 e0 0f bf e0 44 27 3f 08 7b 19 bf f2 4f 93 bf
       -0.56202245 0.6533947 -0.59953356 -1.1508772
000130 3e 64 0b 3f 0f cc 3e 3f b2 1e 01 3e 39 41 57 bd
       0.5444983 0.7453012 0.12609366 -0.052552436
000140 6c 9b d0 be e5 65 3c 3e c1 1a 87 3e 1f 15 9e bd
       -0.40743577 0.18398245 0.263876 -0.07718872
000150 cf 9e 24 be 85 ce 65 3e 2e 12 d1 be 5c 8e 5c 3d
       -0.16076206 0.22442062 -0.40834183 0.053846702
000160 2b c2 98 be f2 a0 a1 bd 26 d7 29 3e fb 32 da bd
       -0.29835638 -0.07892026 0.16585979 -0.10654255
000170 43 64 76 be 9f d7 d5 3d de ba ff bd e6 29 e1 bd
       -0.24061684 0.10441517 -0.12486814 -0.109943196
000180 94 f4 0b be 50 11 14 3e 30 02 2c bf 52 ab 47 be
       -0.13667518 0.14459729 -0.6719084 -0.19498947
000190 c0 83 b3 bf 96 16 21 3f eb c9 12 bf 09 75 6c bf
       -1.4024582 0.6292509 -0.5733935 -0.9236608
0001a0 ab 58 05 be bc 38 08 bf 0e 4b 1f be 3c 17 64 bf
       -0.13022105 -0.5321157 -0.15555975 -0.8909795
0001b0 9f c0 2d bf 57 31 86 bf ad 8f 2e 3e e9 74 38 3f
       -0.6787204 -1.0483807 0.17046995 0.7205339
0001c0 2b 2d 0a 3e 64 0b 89 bf b3 02 b7 be a2 c9 35 3e
       0.13493793 -1.0706601 -0.35744247 0.17752698
0001d0 f3 28 c3 be f5 1d 1b bf 4f f0 d0 be 5d 1f 55 3e
       -0.3811718 -0.60592586 -0.4080834 0.20812745
0001e0 c3 d7 00 bf b8 9c 52 be a5 a3 fc be 36 1f 1b 3f
       -0.50329226 -0.20567596 -0.493436 0.605945
0001f0 56 43 80 be c3 ef 17 3f b1 8a bf 3d d6 99 1e 3e
       -0.25051373 0.5935022 0.09352625 0.15488371
000200 59 dd 23 3f b4 ef c6 be d6 57 22 3f 39 70 6d bc
       0.64009625 -0.38854754 0.63415277 -0.014492088
000210 1b f3 ab be 3b 15 2f 3d a7 d1 2b 3e a6 47 a0 3e
       -0.33583912 0.042744856 0.16779195 0.31304663
000220 5a 9e 11 3e 20 1b 3d bf f5 fc d7 3e 88 9c 83 bf
       0.14220563 -0.73869514 0.42185178 -1.0282145
000230 38 09 a0 bf 6c 7d af 3e d3 66 41 3d 1b 42 7a 3e
       -1.2502813 0.34275377 0.0472172 0.2443928
000240 c3 58 0e 3f e3 f6 e7 bd ff 51 16 3f c1 60 4a bf
       0.5560419 -0.11326387 0.58718866 -0.79053885
000250 0a 54 43 3e 4b 75 04 3f 32 01 5c bf cf 3a 22 bf
       0.19075027 0.51741475 -0.85939324 -0.63370985
000260 c0 19 03 3f 22 f7 1b 3d db 61 58 3d d8 8b fe bd
       0.51211166 0.03807748 0.052827697 -0.12429017
000270 cc 05 9a 3e 32 94 c5 3d c9 c0 2e 3d 82 e5 cc 3e
       0.30082548 0.09647407 0.042664323 0.4001885
000280 fe 7d 78 be 3d b2 01 3f 48 d9 18 3e 0e b7 25 bd
       -0.24266812 0.50662595 0.14926636 -0.040457778
000290 34 cd b6 be 69 7c 29 bf 8b 4a c1 be 78 d7 01 be
       -0.35703433 -0.6620546 -0.37752184 -0.12679851
0002a0 67 8c f9 bd 3a 79 11 3d dd 4c 2f be e6 9d 4c be
       -0.12184983 0.035516 -0.17119165 -0.19982108
0002b0 e6 4f 1f 3f b2 5d 11 bf 2b 04 b6 3e a2 c5 a3 be
       0.6223129 -0.5678359 0.35550055 -0.3198672
0002c0 d0 32 15 3f c7 59 d9 bd 29 af 61 3f a1 18 c6 3d
       0.5828066 -0.10612827 0.881579 0.09672666
0002d0 08 c4 0b 3e 86 1e 29 bf ff 78 48 be 22 1e dd be
       0.13648999 -0.660622 -0.19577406 -0.43187052
0002e0 2e 4c 96 be 1f 30 01 3b 53 48 ea be 4f 70 0d 3e
       -0.29354995 0.001971252 -0.45758304 0.13812374
0002f0 d9 9b 53 be 32 63 ed 3e 0f 93 d8 bd 58 6c 1e bf
       -0.2066492 0.46364743 -0.10574924 -0.6188407
000300 1b 23 01 bf af 96 07 3f eb ca 17 bf 2a c7 a3 bd
       -0.5044419 0.529643 -0.59294003 -0.07996972
000310 b7 49 73 bd ec 7b b9 be 3e 69 1d 3f 7a 26 5b 3e
       -0.05939647 -0.36227357 0.6148871 0.21401396
000320 b0 e5 2a 3f e9 31 4f bf 6f 1b 2e bf ed ed 0e bf
       0.66756725 -0.8093553 -0.6801061 -0.55831796
000330 37 e2 c1 3e 34 5d 6f 3d 10 c7 d8 3d f5 bc 90 3e
       0.378679 0.058438495 0.10584843 0.28269163
000340 f4 29 30 bf 68 f5 d8 3e 2e 86 b8 bd e0 e1 05 3f
       -0.68814015 0.4237473 -0.09009968 0.5229778
000350 5e 65 50 3d 18 17 cf 3e fd 64 fa be 10 34 b4 3e
       0.05087792 0.40447307 -0.48905173 0.3519597
000360 de 14 f9 3e 5f f8 a5 be f0 66 b6 be 0b b2 0c 3f
       0.48648733 -0.32416055 -0.3562541 0.5495917
000370 ec 39 54 3e 3b 37 be be 61 1c 4c be ae 16 f6 3e
       0.2072522 -0.37151513 -0.199327 0.48064178
000380 ba e5 a0 be 56 38 43 bd 12 84 2d be 77 bf 7e 3a
       -0.31425267 -0.047661148 -0.16944912 0.00097178615
000390 b9 f9 b3 be 49 14 5a 3e 3a a4 89 bf 4e e2 83 3d
       -0.3515146 0.212968 -1.0753243 0.064396486
0003a0 72 e6 98 bd 80 d5 84 3e e0 e5 8e be 73 a6 de be
       -0.07465829 0.25944138 -0.27909756 -0.43486366
0003b0 8d 5d 49 3c 49 b2 a1 3d 63 10 26 3d 8c e0 ab 3c
       0.012290371 0.07895333 0.04054297 0.020981096
0003c0 d8 cd 1c bf e4 db 2c be 9d ad 00 3e 9e e7 42 bd
       -0.6125159 -0.16880757 0.12566228 -0.04758417
0003d0 02 42 cd bc a8 d9 57 3d 2c 64 ca be 2c 7d 26 3d
       -0.025055889 0.052697808 -0.3952955 0.040646717
0003e0 82 ed fa be 46 a3 5b be 4f 77 db bd eb f8 95 be
       -0.4900933 -0.21449003 -0.10716116 -0.29291472
0003f0 b9 5c 1b 3e 96 d1 96 bd 5d dc 38 bf f9 ff 7a be
       0.1517209 -0.07364194 -0.7221125 -0.24511708

hidden1.bias f4 [300]
000000 8a 9c a3 3c 0e a8 71 bd 62 97 ad bd 31 58 0d bd
       0.019972105 -0.05899816 -0.084761396 -0.034507934
000010 d5 54 02 bc 2b ba 24 3c 25 6c 8d bd 99 32 f7 3d
       -0.007954796 0.0100541515 -0.069053926 0.120701976
000020 f5 ff 6e be fb bc a3 3c e8 23 09 3e 34 51 62 3e
       -0.23339827 0.019987574 0.13392603 0.22101289
000030 c0 05 37 be af 80 ab bd 6f fb c1 bc 9e 13 d0 3d
       -0.17873287 -0.08374154 -0.023679463 0.10159992
000040 7d 03 82 bd 8a 0e 0b be e8 98 20 be 0a d0 da bd
       -0.063483216 -0.13579765 -0.15683329 -0.106842116
000050 78 b6 7e be 0f 70 61 3e a5 00 bb bc b9 b9 a7 bd
       -0.24874294 0.22015403 -0.022827456 -0.08189721
000060 9d 12 1a be 31 af f5 3d 87 eb bd be 9f 8c ac 39
       -0.15046163 0.11996306 -0.37093756 0.00032911167
000070 95 65 ab be 5a fa d2 3d 8c 78 e6 bb 77 31 24 be
       -0.33475938 0.10301657 -0.0070334133 -0.16034494
000080 8f 48 aa 3c 2b ee e0 bc 4c 75 32 be 26 12 82 bd
       0.020786552 -0.027457317 -0.17427558 -0.06351118
000090 82 1b 1d bc 2b 72 27 be 02 7b e4 bd 9b ae b3 be
       -0.009589078 -0.16352145 -0.111562744 -0.3509415
0000a0 ce 1b 19 bd 89 9b a4 3d fc ee 8d be 4f 10 cf bd
       -0.037380032 0.080374785 -0.27721393 -0.101105325
0000b0 fd ff 83 bc 08 d1 09 be 4f ef 7d bd 15 f1 f0 3d
       -0.016113276 -0.13458645 -0.0619958 0.11764733
0000c0 8f a5 cb bd a7 9e 4d be 39 87 fe 3c 42 1f b6 be
       -0.09943687 -0.20080052 0.031070339 -0.35570723
0000d0 60 f9 13 be c1 e6 05 be 78 e9 e7 bd 72 74 70 be
       -0.14450598 -0.13076307 -0.113238275 -0.2348192
0000e0 4b b0 10 3d 25 61 c6 bc 1f f8 6b 3d 43 a1 b9 bd
       0.035324376 -0.024216244 0.057609674 -0.09063961
0000f0 f2 b6 53 be 44 de af bd d6 7a 14 be 99 93 c1 be
       -0.20675257 -0.08587316 -0.14499983 -0.3780792
000100 9f a7 6c bd 8d 89 c5 3c de fa f8 bd f9 13 ba be
       -0.057777043 0.02411344 -0.12157224 -0.36343363
000110 8c e8 36 3e 0d 00 f1 3d 73 29 74 be 48 bb 18 3d
       0.17862147 0.11767588 -0.23843937 0.03728798
000120 69 3b 03 be 19 28 93 be 38 ab eb bd b1 96 e2 bd
       -0.12815632 -0.2874153 -0.11507267 -0.11063898
000130 6f 7f cd 3d fe 87 d6 bd 99 e5 96 be 94 0a c4 be
       0.10034072 -0.10475157 -0.29472044 -0.3828932
000140 47 0b 77 be b5 86 a3 bd b7 4d 01 3d 67 b3 af bd
       -0.24125396 -0.07984678 0.031568255 -0.0857914
000150 c0 63 46 bd 29 53 11 be 1f df 11 be 37 ae 83 bd
       -0.048434973 -0.1419188 -0.1424527 -0.06429713
000160 6b 11 21 3e a0 fc c6 3c f9 a8 d7 bd 64 1b 6c be
       0.157293 0.024290383 -0.10530276 -0.23057324
000170 9b a8 0e be ae 0c c7 bd 56 66 05 be 49 d6 59 be
       -0.13931505 -0.09719215 -0.1302732 -0.2127315
000180 55 23 d4 bd 6a 48 e4 bc 8f de c8 be 5c e4 8f 3d
       -0.103583016 -0.027866561 -0.392323 0.07025978
000190 f8 f5 60 be 2f 7c 9d bd 4b 52 f8 bc 07 4f 0f be
       -0.2196883 -0.07689702 -0.030312678 -0.1399499
0001a0 8f ff 09 bd 35 b2 9a 3d e4 61 19 3d dd 11 2c 3d
       -0.033690985 0.075535215 0.03744687 0.042009223
0001b0 be c1 0f be 14 06 00 bf d9 eb 7b be c2 0d 1c 3e
       -0.1403875 -0.50009274 -0.24601687 0.15239623
0001c0 04 cb d7 3d 07 64 8b be 85 97 f5 bd ab cf d8 bd
       0.10536769 -0.27224752 -0.11991791 -0.105864845
0001d0 64 d8 32 be 5f e0 58 be 01 cb 1f bd 4c 35 17 be
       -0.17465359 -0.21179341 -0.03901196 -0.14766425
0001e0 ad da d4 3b c6 69 f7 3a 82 8d 95 be 11 d0 6e be
       0.0064957947 0.0018876127 -0.29209524 -0.23321559
0001f0 4b 6d 13 bd 0c 40 32 bd ff 89 ad bd d4 e0 d0 bc
       -0.0359929 -0.04351811 -0.08473586 -0.025497831
000200 28 68 a7 bd 07 a2 65 be 48 c9 8c be 99 13 c9 bc
       -0.08174163 -0.2242509 -0.27497315 -0.024545478
000210 72 1a 94 3d 4d 0e c9 be ed 74 00 bf f2 87 d0 bd
       0.072316065 -0.39268723 -0.50178415 -0.101821795
000220 0d d5 55 bc 99 9a 12 3b c4 90 34 be 53 a4 2a bd
       -0.013051284 0.002236998 -0.17633349 -0.041660618
000230 c5 3a 61 be 07 45 24 be 71 8a 59 bd 8b 4c a0 bd
       -0.21995075 -0.16041957 -0.053110544 -0.078270994
000240 44 e9 93 be b4 80 db bd 24 ab 41 be 85 e7 8a be
       -0.28888905 -0.107179075 -0.18912941 -0.2712976
000250 e0 94 81 be 67 54 87 be 7d 35 29 bd d4 a7 a6 3c
       -0.25308895 -0.2643158 -0.041310776 0.020343699
000260 57 b8 f1 3d 1d 56 c9 3d eb 28 1c be 78 90 92 3d
       0.11802738 0.09830878 -0.15249984 0.071564615
000270 ad 0b 0e be 90 c7 e3 bd 36 a2 11 be 12 9b 06 3e
       -0.13871641 -0.11122048 -0.14222035 0.13145092
000280 00 da f8 3d 6a ec c7 3c 7c 67 d7 bd 04 4c eb 3d
       0.12150955 0.024404723 -0.10517785 0.11489108
000290 a3 7a ab bd a4 44 21 be c2 58 10 3e be d7 0d be
       -0.083730005 -0.1574884 0.14096358 -0.1385183
0002a0 c5 0e 2b be ff 7d 4f be c4 0e a5 bd 2f 06 a6 bd
       -0.16704853 -0.20262907 -0.08059457 -0.08106648
0002b0 8b e2 dd 3d 72 ee 25 be b3 e9 ff 3c 1e d8 e4 bd
       0.10834225 -0.16204241 0.031239366 -0.111740336
0002c0 3e 22 2d be 46 54 ad bd 1a dc d7 3c 2d 53 2d be
       -0.16907594 -0.084633395 0.02635007 -0.1692626
0002d0 c8 d6 53 be 69 7c 3c bd 7d 40 f2 bd ce 89 07 be
       -0.20687401 -0.046017084 -0.118287064 -0.13236162
0002e0 22 59 86 be c8 a2 3e bd 0b 9d 4e be 77 7f 8e be
       -0.26239878 -0.04654196 -0.20177095 -0.27831623
0002f0 85 4a 97 bc 39 7c ab bd dc 4f 3d be e5 7f a0 bd
       -0.01846815 -0.08373303 -0.18487495 -0.07836894
000300 bd 37 19 3c 3f 26 27 be 4e 30 7c bd 93 00 65 bd
       0.009351668 -0.16323183 -0.061569504 -0.05590875
000310 87 58 8a 3d a4 bc a0 bd 73 26 61 3d 52 33 bf be
       0.067551665 -0.0784848 0.05496831 -0.37343842
000320 a2 b5 16 3e 95 b1 14 be 24 53 cb bd 97 f9 af bd
       0.14717725 -0.14520867 -0.09927967 -0.08592527
000330 05 26 0e be 03 36 c6 be b0 a5 20 3e a7 23 49 be
       -0.13881691 -0.38713083 0.15688205 -0.19642507
000340 fa ff 34 3c 09 5b 00 3d 76 f4 86 be 33 fa 10 be
       0.011047358 0.031336818 -0.26358384 -0.14157943
000350 e9 b7 69 be ab 35 16 be 13 79 66 be 3b 74 1f 3d
       -0.22824062 -0.1466891 -0.22507124 0.038929205
000360 0a 14 24 bd 79 dc 03 be 10 b0 c1 bd c9 b2 9a bd
       -0.040058173 -0.12877072 -0.094574094 -0.07553632
000370 4c b9 1a 3e 66 c3 f7 bc 17 bf f1 bd d8 e1 d6 be
       0.15109748 -0.03024454 -0.118040256 -0.4196918
000380 a0 b0 34 3e fe ef 99 be a0 90 ab bc be e2 d7 bd
       0.17645502 -0.30065912 -0.020942986 -0.105412945
000390 ed 62 40 be 2b 38 da bd 4b 91 0a be a5 c7 80 bc
       -0.18787737 -0.106552444 -0.13531987 -0.015720198
0003a0 82 7b 8e 3c 64 1b 54 be b1 cc 38 3c 01 cd b7 3d
       0.017392877 -0.20713574 0.011279271 0.08974648
0003b0 fc 14 e9 3d d5 55 f1 3c 03 39 57 be eb 38 4d 3d
       0.113809556 0.029459873 -0.21017842 0.05010311
0003c0 ce 3a eb bd 05 bc 89 be 50 2a 68 be 09 77 82 bd
       -0.114858255 -0.2690126 -0.22672391 -0.063703604
0003d0 c8 f7 0c be 96 0b d7 3c 32 70 34 be 4b e8 ff 3c
       -0.13766396 0.026250642 -0.17620924 0.031238696
0003e0 07 24 90 3d 83 f4 7d be d4 96 a5 bd 9b 4a bc bd
       0.07038122 -0.24800305 -0.08085409 -0.09193917
0003f0 64 5c 28 be 20 d5 03 be d4 e9 62 bd b4 3e 47 3e
       -0.16441494 -0.1287427 -0.055398777 0.19457513

hidden2.weight f4 [300, 300]
000000 ca 21 33 3d c3 a6 99 3d 2a fd 6e 3e 19 68 39 be
       0.043733396 0.075025104 0.23338762 -0.18106116
000010 59 cc 2e bc 58 54 49 bf 28 07 af bc 5e c7 10 3e
       -0.010668837 -0.78644323 -0.021365717 0.14138553
000020 bf 14 e8 bc 59 31 ec bd 74 de 9d be a7 47 ba 3e
       -0.028330205 -0.1153285 -0.3083378 0.3638279
000030 2a 5a 2f bf 2e 77 ef be a5 fd eb bc 66 1f ee 3e
       -0.68496954 -0.46770614 -0.02880747 0.4650833
000040 22 c3 b3 3e 6c 43 a3 3e c5 db 16 3f 93 12 97 3d
       0.35109812 0.31887376 0.5892909 0.073765896
000050 e4 53 96 3d fd 72 ca bd f9 cc cd 3d 40 10 47 bf
       0.073402196 -0.098852135 0.10048861 -0.7775917
000060 b6 3a 9d bc f3 22 98 3e b6 87 02 be 51 8b 96 be
       -0.019193035 0.29714164 -0.12747082 -0.29403165
000070 93 22 b5 bd e3 01 eb bd bd b8 a9 bb 14 05 bf 3e
       -0.08844485 -0.11474969 -0.005179493 0.37308562
000080 88 9b a9 bf 64 36 04 bd 36 6e 7c be c7 86 32 3e
       -1.3250589 -0.032278433 -0.24651417 0.17434226
000090 ac 54 84 3e ad 88 2d 3e 66 23 3d 3e 44 70 b0 be
       0.2584585 0.16946669 0.18470535 -0.34460652
0000a0 bf 4e 33 3e 43 13 a8 be ee fb 43 bf da ef c4 bc
       0.17510508 -0.32827196 -0.7655629 -0.024040151
0000b0 73 b5 91 bf 1a 94 39 bd e0 c2 ef 3e 34 27 b2 3e
       -1.1383499 -0.045307256 0.46828365 0.34795535
0000c0 52 3c 13 3e 7c ef 1e 3e e7 8b b4 bd 35 bf 92 be
       0.14378479 0.15521044 -0.08815747 -0.28661504
0000d0 68 a6 1a bf e4 f4 a9 3e 21 6a aa 3e 31 42 4f 3e
       -0.60410166 0.3319465 0.33284095 0.20240094
0000e0 28 6b 14 bf dd 6b 0a 3f 78 5c 3d 3e f3 ee 2d be
       -0.5797601 0.54070836 0.18492305 -0.16985683
0000f0 ed c6 e6 bd 13 38 4a bf fd 2f d9 be 61 6f d7 3d
       -0.11268411 -0.7899181 -0.42419425 0.10519291
000100 09 6c d9 be df ed 4f 3e 65 77 aa 3e 84 c8 15 3e
       -0.42465237 0.20305584 0.33294216 0.14627272
000110 25 eb 0d 3e f3 b5 6c be c4 60 55 3e 49 33 88 bc
       0.13859232 -0.23116283 0.20837694 -0.016626017
000120 c0 96 e7 be a7 76 49 3d be f2 f9 bc 1c b6 15 bf
       -0.452322 0.04918542 -0.030511256 -0.58481
000130 b2 e7 16 3e 51 72 69 be 03 f9 ed be b0 2a 09 be
       0.14736822 -0.22797514 -0.46479043 -0.1339519
000140 9d 24 01 3f cd 02 c4 be 2b d2 f3 bd 96 ee ae 3e
       0.5044649 -0.38283387 -0.11905321 0.34166402
000150 cd c8 98 3d c4 3d 88 be 52 b4 8b bf a5 f7 64 3e
       0.07460175 -0.26609623 -1.0914404 0.22360094
000160 66 74 1f bf a7 25 a0 bd 95 86 e6 3e c0 22 90 be
       -0.62286985 -0.078196816 0.45024553 -0.28151512
000170 5e 30 03 3e a2 e9 b4 3e 21 b7 e6 be ce 53 67 bf
       0.1281142 0.35334498 -0.4506159 -0.9036225
000180 fe 22 94 be 3b c1 6b be 45 93 d2 be 72 6e 34 3c
       -0.28932947 -0.2302293 -0.41127983 0.01101266
000190 1d 7b c7 bd fe 34 b2 3d 0b 87 12 be cd db 81 be
       -0.09740279 0.08701514 -0.14309327 -0.25363007
0001a0 0c c9 3e 3d fe a4 7e bd 3d e8 86 3e 4e ec 0d 3e
       0.046578452 -0.062169068 0.2634906 0.13859674
0001b0 a1 27 0b 3e b7 33 50 bc 4c 43 8e 3e 61 55 b0 3e
       0.13589336 -0.012707642 0.27785718 0.3444014
0001c0 12 f7 53 3e 48 f6 09 be 95 bd 82 bd 37 18 2b bc
       0.20699719 -0.13472855 -0.06383816 -0.010442785
0001d0 ee 5d 40 bf 0d 08 12 bf 27 2a f9 be f2 25 5f 3d
       -0.75143325 -0.57043535 -0.48664972 0.054479547
0001e0 ec ad 1b bf 7c 0f 50 3c 19 8a 98 be 14 3a 20 3d
       -0.6081226 0.012699004 -0.2979286 0.039117888
0001f0 fb c3 bd be 96 e0 b9 bd 1d c6 16 bf c9 c9 46 3d
       -0.37063584 -0.090760395 -0.58896047 0.04853228
000200 7c e7 39 3e 1e b9 37 3f 2b 6f 1d 3e 46 31 89 be
       0.1815471 0.7176684 0.15374438 -0.26795405
000210 4a 12 1a bf 74 f5 08 3f 68 81 3d bf f0 15 02 3e
       -0.60184157 0.5349953 -0.74025583 0.12703681
000220 76 32 1a bd 04 62 55 bf 52 14 29 bf 07 ac 44 be
       -0.03764578 -0.83352685 -0.6604663 -0.19206248
000230 31 82 7b 3e 5d 42 13 3f e7 5d 08 3d 22 ad 88 bb
       0.24561383 0.5752314 0.033292677 -0.0041710297
000240 41 80 7f 3c 39 6a b8 3b d4 dd 74 3d 7a 37 ba 3d
       0.015594543 0.005627897 0.059781864 0.090926126
000250 96 a7 57 3e 6d e0 aa bd e0 90 37 3f b2 2f 8a 3e
       0.21060023 -0.08343587 0.71705437 0.26989514
000260 6f bd a8 be e3 a5 7c bc 61 72 2e 3e 59 98 c5 be
       -0.32957026 -0.01542041 0.1703582 -0.38592795
000270 cb f4 70 bc c3 a4 3b be 5e ab 6a be f7 fd b9 bd
       -0.014706801 -0.1832457 -0.22916934 -0.09081643
000280 60 5b 6e be 32 f0 35 3e 74 8d 17 3e fb e6 0c bf
       -0.23277044 0.17767408 0.14800054 -0.5503995
000290 07 83 3a 3d 74 63 4b be ea bd b7 3e 42 74 c3 be
       0.045535114 -0.19862157 0.3588708 -0.38174635
0002a0 f1 df c1 be cd 4b 9a 3e fe 34 77 3e ca 6c d0 3e
       -0.37866166 0.30135956 0.24141309 0.40708
0002b0 03 f8 41 3f e6 32 34 3e ac 20 c7 bd ad 75 51 be
       0.7576906 0.17597541 -0.097230285 -0.20455046
0002c0 9e 5a e7 3a 6e 54 d4 3e 1b 70 1f 3e 6d c4 43 3c
       0.0017650907 0.41470665 0.15570109 0.011948687
0002d0 06 f7 0a be af 46 07 3e 6b 11 6b bd bb e5 d3 bd
       -0.13570794 0.13210557 -0.057389658 -0.10346552
0002e0 7f 78 05 3f 06 70 a7 3c e1 67 f5 bd ce 93 1e bf
       0.5213699 0.02043916 -0.11982704 -0.6194428
0002f0 92 77 87 3e d8 b8 5f bd 0d 69 6d be bb ad 9b 3e
       0.26458412 -0.05461964 -0.23184605 0.30405983
000300 06 54 72 be 2e 69 16 3e b3 ee a1 3d d3 0a 9c be
       -0.23664865 0.1468856 0.079068564 -0.30477008
000310 70 73 4b 3e 59 d2 1d 3c 76 a6 07 3f f7 26 ab 3e
       0.19868255 0.00963267 0.52988374 0.33428165
000320 f4 6f a0 3e 54 24 c7 3b 7a 76 f8 be a2 c2 8d be
       0.31335413 0.0060773287 -0.4852789 -0.27687556
000330 44 b2 89 3e 70 2d b8 3e 28 5a d7 be 63 13 9f 3e
       0.26893818 0.35972166 -0.4206097 0.31069478
000340 fe 44 50 3e 26 f6 61 bf 8e 83 da be a4 25 57 bf
       0.20338818 -0.8826622 -0.42678493 -0.8404181
000350 9f b3 5d 3e 74 d3 4e be 3a d1 31 3d 45 d1 44 bf
       0.21650551 -0.2019785 0.043412425 -0.7688182
000360 df 9d d7 bc 61 d6 6d be 2c 03 bb 3e f4 8c 04 bf
       -0.026320396 -0.2322631 0.36525857 -0.5177758
000370 72 d4 a7 be bd ab 27 be 3e 57 00 bf 74 1d cd be
       -0.3277927 -0.16374107 -0.5013312 -0.40061533
000380 06 91 87 bf 6a f9 0a bf 7f 29 1f be e7 aa ef be
       -1.0591133 -0.54286826 -0.15543173 -0.46810076
000390 bd 4b 8d 3e c5 75 02 bf 86 9b c6 3e 3d 19 1e be
       0.27596846 -0.5096095 0.3879053 -0.15439315
0003a0 1a 81 11 3e 80 e3 64 3e 16 d1 46 3e ca 08 46 be
       0.14209405 0.2235241 0.19415697 -0.1933929
0003b0 03 0d 91 3e bf 16 6b bf b7 49 1b be 14 f8 b8 bb
       0.2833024 -0.9183158 -0.15164839 -0.0056448076
0003c0 ae 1a 31 3e dc 6d d7 be 4c 51 ee be 41 98 90 3e
       0.17295334 -0.42076004 -0.465464 0.2824116
0003d0 22 fa 6f 3e 7a e8 85 3e 4d 76 22 be f2 fe 37 bf
       0.23435262 0.26153928 -0.1586544 -0.7187339
0003e0 a6 c3 b7 be 2a e3 86 3e da 3e 84 3d 22 65 c9 3e
       -0.35891455 0.26345187 0.064573005 0.3933497
0003f0 56 40 a0 3d 30 47 c6 bd 84 84 31 3e 2c 0b bc bd
       0.07824771 -0.09681547 0.17335707 -0.09181818

hidden2.bias f4 [300]
000000 72 db dd 3c d6 39 32 3d 29 00 91 be 38 f5 bb bb
       0.027082179 0.043512188 -0.28320435 -0.0057360195
000010 07 67 ea 3e 51 9b 5b be c0 da 0c be d5 fc e3 3d
       0.4578173 -0.21445967 -0.13755322 0.11132208
000020 e6 99 ed bd 85 4c 16 be bd 2b 30 bd 61 23 38 be
       -0.116016194 -0.14677627 -0.043010462 -0.17982246
000030 93 2a 67 bb d7 fc 04 be 30 16 5b 3e a4 26 06 bd
       -0.003527318 -0.12987076 0.21395183 -0.032751694
000040 6e eb 9b be 1f 40 27 be e8 2f 8a 3b c0 9a 24 3d
       -0.30453056 -0.16333054 0.0042171367 0.040186644
000050 cd 74 21 be c1 b7 a6 be 95 6d 19 be 19 2a bc bd
       -0.15767212 -0.32562068 -0.14983208 -0.09187717
000060 ca 2d 7a be c2 cb d6 be 83 2c 87 be 74 8d 15 be
       -0.2443153 -0.4195233 -0.26401147 -0.14604741
000070 94 ff 56 bd 0f a0 d2 3d 99 c0 b7 bd 99 00 e7 bc
       -0.052489832 0.10284435 -0.08972282 -0.028198527
000080 b1 10 1a be 18 2d 8a be 3b 9b 20 be fc 20 3b be
       -0.1504543 -0.2698753 -0.15684216 -0.18274301
000090 01 f3 8f be 2b 63 85 be fc 34 07 be 33 35 dd bd
       -0.28115085 -0.26052222 -0.13203806 -0.108011626
0000a0 ff 40 2c bd 3a aa 96 bd fe e6 04 be b6 92 01 be
       -0.042054173 -0.07356687 -0.12978742 -0.12653622
0000b0 4f 6b 0f be f6 5a 85 be 71 3f 5e bd 69 41 16 3d
       -0.14005779 -0.2604596 -0.05425972 0.036683474
0000c0 d7 4a 11 3f db 94 04 3e d4 d7 4c be f2 d0 44 be
       0.5675482 0.12947409 -0.20004207 -0.19220331
0000d0 83 9e 53 be 0c ae 6f be 5a fb b2 3e 48 fd 92 bc
       -0.20665936 -0.23406237 0.3495739 -0.01794304
0000e0 0c 5d 8e bd 82 85 a4 bd 3c 19 98 bd 3d fd 0b 3e
       -0.06951341 -0.08033277 -0.07426688 0.13670821
0000f0 f1 38 0f be 59 ec 7c be 6c 56 31 bd 7b f5 18 be
       -0.13986565 -0.24699534 -0.04329531 -0.14937393
000100 50 ed 6d 3e c1 95 68 bc b1 92 42 bc 74 82 30 be
       0.23235059 -0.01419586 -0.011875794 -0.17237264
000110 29 33 8e be 80 47 28 be 59 77 9c 3b 0d 90 5a bd
       -0.27773407 -0.16433525 0.0047749695 -0.053360034
000120 4e b8 b3 be 3c 1f 97 be 9a bd b1 be 68 ba 4c be
       -0.3510155 -0.29516017 -0.34714967 -0.19992983
000130 da 28 13 be 57 a8 04 3d 13 6c 7f bd fb 66 b2 bd
       -0.14371052 0.032387104 -0.062358927 -0.08711048
000140 fe 5a 34 be 1c e0 25 be d5 ef 3c be 8f 45 38 be
       -0.17612836 -0.16198772 -0.18450864 -0.17995284
000150 de f3 2e 3e 18 10 93 3d 91 a6 59 3e 0b 49 da 3e
       0.17085215 0.07180804 0.21254946 0.42633852
000160 ab 74 30 3d f7 c7 06 be fd 86 3a be 1e 63 b9 3c
       0.043080013 -0.13162218 -0.18215556 0.02263027
000170 a7 bd db bc ed ad 2e bd ba c7 3e 3e 3e a2 88 bd
       -0.026823832 -0.042646337 0.18630877 -0.0667157
000180 bb b1 a8 be ec 17 9a be d4 30 23 bd 41 5f ce bd
       -0.32948098 -0.30096376 -0.039841488 -0.10076762
000190 1f 6d 2e be 13 22 09 bd 50 be eb be 71 ea c2 bb
       -0.17033814 -0.03347976 -0.46043634 -0.0059483577
0001a0 eb 53 09 be d2 16 ee 3d 45 81 2b 3d b1 e3 05 be
       -0.13410918 0.116254464 0.041871328 -0.13075139
0001b0 49 31 e6 be ba d6 68 be 55 23 d1 3d 20 c2 2f 3e
       -0.44959477 -0.22738162 0.10211817 0.17163897
0001c0 d8 b7 b8 3d 69 70 22 3d d2 50 28 be 9e 61 46 bc
       0.090194404 0.039657984 -0.1643708 -0.012108235
0001d0 e3 ef 0d be 98 d3 50 be c7 13 22 be 98 1c ea bd
       -0.13861041 -0.20393217 -0.15827857 -0.11431235
0001e0 f5 1a 6d be da a7 2d be 5e bf 82 be 34 f2 cc be
       -0.23154815 -0.16958562 -0.25536627 -0.40028536
0001f0 6d df 87 3c 2a 18 46 3e 5a a6 c2 bd a3 55 43 be
       0.01658603 0.19345155 -0.09504385 -0.19075637
000200 41 54 92 bd 60 dc cd bd 65 ea 0c be 1c d1 7d be
       -0.071449764 -0.10051799 -0.1376129 -0.247868
000210 ae c1 72 be 10 96 e4 bc 9a 17 e6 bd ee 02 29 be
       -0.23706695 -0.027903587 -0.112349704 -0.16505024
000220 0e d4 02 3e 25 9f b3 bd 2e 86 1d bc e1 01 28 be
       0.12776205 -0.08770589 -0.00961451 -0.16406967
000230 10 72 ae bd 23 82 2f be db 5e 80 be 37 43 bd bd
       -0.085178494 -0.17139487 -0.2507237 -0.09241336
000240 71 f6 76 3c b9 b8 81 be df b3 3d be 87 ce c7 bd
       0.015073405 -0.25336245 -0.18525647 -0.09756189
000250 78 4e 39 bd 8f a0 86 be 07 49 98 bd ef 95 42 be
       -0.04524085 -0.2629437 -0.07435804 -0.19002508
000260 06 ee 92 be d9 a1 66 be 74 6f d2 bc a3 63 57 be
       -0.28697222 -0.22522677 -0.02568791 -0.21034102
000270 03 96 ad 3d ba 3b e6 3d 9c 62 46 3d 3e 90 6d be
       0.08475878 0.11241861 0.048433885 -0.23199555
000280 f0 96 9a 3c bb 0a d2 3d 35 16 93 bd 39 d0 01 bc
       0.0188708 0.10255953 -0.0718197 -0.007923179
000290 58 3b 8c bd 0d c2 29 3d 03 2e 01 bd 62 c8 23 39
       -0.068472564 0.041444827 -0.03153802 0.0001561954
0002a0 7e 96 c0 be 79 30 2e be e8 fe 89 bd 49 24 0f 3d
       -0.37614816 -0.17010678 -0.06738073 0.034946714
0002b0 81 2d 73 bd 85 04 87 3d 72 c0 0a be 63 1b 35 3e
       -0.059369568 0.06592659 -0.13549975 0.17686228
0002c0 92 ef 97 bd 7c 5a 10 be c4 ab a3 bc d9 ca f4 bd
       -0.07418741 -0.14097017 -0.019979365 -0.119527526
0002d0 6b 38 04 be c9 d1 83 be 23 15 e2 3b 92 92 76 bd
       -0.12912147 -0.2574599 0.0068994923 -0.060198374
0002e0 9c 56 88 3b 46 3d 82 be b9 05 ba bd 82 84 27 bd
       0.0041607153 -0.25437373 -0.09083123 -0.040897854
0002f0 0a 7b c8 bd ea 84 24 3c 24 fe 5d be e9 23 59 be
       -0.09789093 0.010041455 -0.21678978 -0.21205105
000300 fa 46 73 3c 56 b3 e5 3d 95 55 57 be f3 60 89 be
       0.014848465 0.11215846 -0.2102874 -0.2683178
000310 b7 64 91 be 95 46 97 3c fc ab 33 be 49 6f 04 be
       -0.28397152 0.018466273 -0.17546076 -0.12933077
000320 0e f8 48 3d 47 be 51 be fc 95 89 bc 2d 83 57 3d
       0.04906469 -0.20482741 -0.016795151 0.052615333
000330 83 0b d4 bd e0 32 b5 be 25 4d 3f be 5c 3a a5 be
       -0.10353758 -0.35390377 -0.18681772 -0.32271087
000340 99 82 87 bd 08 e3 89 be d2 18 46 3c 44 e0 da bb
       -0.066167064 -0.26931024 0.012090879 -0.0066795666
000350 86 de 37 be fd 18 44 bd 03 a1 43 3d dd cd 1d 3e
       -0.1795598 -0.047875393 0.047760975 0.15410562
000360 33 c0 48 be d9 6e 41 bc a5 1e 92 be 60 ca 88 be
       -0.19604568 -0.011806213 -0.28539005 -0.267169
000370 59 94 3b bc 6c 28 cc be 82 6a e0 bc 6a eb 6f bd
       -0.011448943 -0.3987459 -0.027394537 -0.058574118
000380 23 22 77 be a1 15 c4 3e df 84 27 be 99 23 68 be
       -0.24134116 0.38297752 -0.1635928 -0.2266983
000390 28 60 53 bd fd 13 cc be d0 36 8a bd 91 c3 8f be
       -0.051605374 -0.39859 -0.06748736 -0.28078893
0003a0 b4 70 52 be ae 21 24 be c5 8a 10 be f3 b3 70 be
       -0.20550805 -0.16028473 -0.14115436 -0.23506145
0003b0 21 90 a7 be fb 2b 96 3c 66 0c 1a be 51 7e d2 3d
       -0.3272715 0.018331518 -0.15043792 0.10277999
0003c0 bf df bd bd ea 9e c8 be f2 63 e7 bd d2 22 9d 3c
       -0.09271192 -0.39183742 -0.1129836 0.019181643
0003d0 c0 69 9c bd 93 8a 6d be 05 b8 1d 3d 6f f3 06 3c
       -0.07637358 -0.23197393 0.038505573 0.00823675
0003e0 b6 81 3e be 1c 60 35 bc 04 97 26 3e ea e6 3d be
       -0.18604168 -0.011070278 0.16268545 -0.18545118
0003f0 2a 28 04 be 24 56 93 bb 8c 48 e4 be eb 6d f6 bd
       -0.12905946 -0.0044963527 -0.445866 -0.12032684

mu.weight f4 [4, 300]
000000 73 e5 23 3f fe 1a 19 be 75 2a fa be 33 57 1d 3f
       0.64021987 -0.14951703 -0.48860517 0.6146118
000010 81 52 bb bd c4 68 e1 3d 6a ee c1 3e a2 b7 a2 be
       -0.09146596 0.110063106 0.37877208 -0.31780726
000020 e2 7e ba 3e 34 ff 09 be 82 9e 1f 3e 05 fc 4b be
       0.3642493 -0.13476259 0.1558781 -0.19920357
000030 c6 81 24 3e 15 96 84 3d 51 22 d5 3d 67 88 4b 3d
       0.1606513 0.064739384 0.10406936 0.04969063
000040 5f 03 3e be 9e 32 65 3e f4 c4 0e bf fe 59 b0 3d
       -0.18555973 0.2238259 -0.55769277 0.08610915
000050 cc b8 b4 3e 5c a2 7f bf 37 3e ae 3e ea c6 90 bf
       0.3529724 -0.99857116 0.3403184 -1.1310704
000060 0b c9 ce be a9 61 94 bd bb ea dd 3d f4 26 b5 3d
       -0.4038776 -0.0724519 0.10835787 0.0884532
000070 02 6d 22 bc 45 27 05 3e 5d 90 36 3f 01 b0 1c bd
       -0.009913685 0.13003261 0.7131403 -0.038253788
000080 0b 36 21 bd 34 fe 5a bf 38 e1 a8 3e 86 4e 6a 3e
       -0.03935818 -0.85544133 0.32984328 0.22881517
000090 8b 6f eb 3e bb da 69 3e 83 65 9c 3d 25 2e da bd
       0.45983538 0.22837345 0.07636549 -0.106533326
0000a0 7d 7c 1b 3e f3 33 09 bf a5 8d 09 bf 02 85 d8 3e
       0.15184207 -0.53594893 -0.5373176 0.42288977
0000b0 95 c4 8c be ab 8d 4e bf e3 35 97 be b9 a9 88 be
       -0.2749373 -0.8068492 -0.295333 -0.26691988
0000c0 0e ac a2 bc 4c 6c 8e be ff 19 2f bd eb 86 0e 3d
       -0.019857433 -0.27817 -0.0427494 0.034796637
0000d0 88 a2 99 bf 64 50 cc be e2 c7 8e 3b ec 75 b5 bc
       -1.2002726 -0.39905083 0.004357324 -0.022150956
0000e0 c5 da 05 bf 3b 16 bc be 2f 71 27 3f 82 37 1b be
       -0.5228694 -0.3673571 0.6540708 -0.15157893
0000f0 57 27 10 be 1e af e3 be a7 1f a7 3e 96 2e af be
       -0.14077507 -0.4446954 0.32641336 -0.3421523
000100 24 c5 e3 be 84 83 5a 3f f8 cb a8 3d 41 7c dc 3d
       -0.44486344 0.85356927 0.08242029 0.10765887
000110 a3 94 30 3f d8 08 58 bd 53 8c 26 3e cb 62 57 3e
       0.689768 -0.05274281 0.16264467 0.2103378
000120 d5 65 b1 be d1 96 b0 3e 06 d4 fb 3e 11 98 4c 3d
       -0.34648004 0.34490064 0.491852 0.04994971
000130 70 a7 c9 be 2c d6 3d 3e a2 ec b9 3e 65 18 9a 3d
       -0.39385557 0.18538731 0.3631335 0.07524184
000140 24 91 95 3e 51 40 db 3e a8 ef ce 3a 03 e9 a3 be
       0.29212296 0.42822507 0.0015787976 -0.3201371
000150 65 4e e9 3e 4f 5b 41 be 03 54 2f 3e 07 50 01 be
       0.45567623 -0.18882488 0.17121892 -0.12628184
000160 9e 5a 6f be 7e 05 7a 3f 04 0c 3b 3d 4e 86 8a 3e
       -0.23374411 0.9766463 0.045665756 0.2705559
000170 63 81 e5 3e d4 fb cd bd 57 53 be bd d9 72 e2 bd
       0.44825277 -0.10057798 -0.092932396 -0.11057062
000180 95 55 4f 3f e3 65 52 bd 12 63 ff be da f0 b4 3e
       0.8098996 -0.051366698 -0.49880272 0.35340005
000190 c1 da 19 bf 09 67 ed 3e 69 9a 03 be cd 5d 86 bd
       -0.60099417 0.46367672 -0.12851872 -0.0656086
0001a0 8f 45 9c bd 05 51 d7 bd 05 5d 81 3e 81 0c 78 bd
       -0.07630455 -0.105135 0.2526628 -0.0605588
0001b0 2b 0b 41 bd af 8b 0a 3e f1 f1 c7 bd ed ae de 3c
       -0.04712979 0.13529848 -0.097629435 0.02718302
0001c0 39 9c 3e bf 37 43 fb be 79 98 db 3e 11 8c 23 3d
       -0.74457127 -0.49074718 0.42889765 0.0399285
0001d0 55 47 51 3e f3 f2 df be 61 35 07 bd 69 bd e3 3e
       0.20437367 -0.43740043 -0.03300989 0.44480446
0001e0 6e c6 89 bf 01 38 ef be 40 56 98 be bf 7b dd be
       -1.0763681 -0.46722415 -0.29753304 -0.43258473
0001f0 1c a0 5f bf b6 a0 93 3e 3a 99 7b 3f 0b e5 c0 be
       -0.8735368 0.2883355 0.9828068 -0.37674746
000200 61 f4 31 be 3c 0c 92 3d e2 c6 0b be a1 08 97 3d
       -0.1737838 0.0713124 -0.13650087 0.07374693
000210 53 dd fd bc 3d 84 5a 3e 2a 00 3b 3f 24 74 e3 be
       -0.030989325 0.21339507 0.73047125 -0.44424546
000220 35 88 b6 3e 36 b0 95 bd 95 da 99 be e3 d6 5a 3e
       0.35650793 -0.07309 -0.30049577 0.21371035
000230 da 67 7a be a0 26 5a 3e 3b 46 59 3f 0c a5 18 be
       -0.24453679 0.21303797 0.8487279 -0.1490671
000240 0e 82 13 be 03 d3 b6 bd 1b 2e 1a bf 24 d5 6c be
       -0.1440508 -0.08926966 -0.602266 -0.23128182
000250 c7 03 a9 3b 9f fa 83 3e b8 db 8e 3d 4a ae 4b 3f
       0.005157921 0.25777146 0.06975502 0.7956282
000260 99 4d 53 bf ba cb 8b 3e b6 35 17 be f8 cf a2 be
       -0.8254028 0.2730387 -0.14766583 -0.31799293
000270 fc c3 a6 be b5 66 1c 3f bc 45 fd 3e 6c 00 96 be
       -0.325714 0.6109422 0.49467266 -0.29297197
000280 44 97 0f be c9 85 e2 bd 5f e6 07 be ca 46 74 3f
       -0.14022547 -0.11060674 -0.13271473 0.95420516
000290 79 72 ba 3d e1 40 6f 3e 75 7e 91 3d 33 02 ea be
       0.09103865 0.23364593 0.07104198 -0.45704803
0002a0 3c d5 15 bf ee 5c dc 3e 9d b1 92 be 72 d4 fe 3d
       -0.58528495 0.4303965 -0.28651133 0.124428645
0002b0 0e 24 ef 3c 77 bf 55 3d ce b9 b5 3c c2 55 e0 3d
       0.029191997 0.05218455 0.022183325 0.10953857
0002c0 80 b3 0b 3c 40 15 bc be c7 6e c0 3d e9 8a db be
       0.008526683 -0.36734962 0.09396129 -0.42879418
0002d0 27 07 ac be a1 cc 8d 3d fe af e3 3d f2 9c d8 3e
       -0.33599207 0.069237955 0.11117552 0.4230724
0002e0 28 2e 5f 3e c1 a2 c9 3d d5 ec 83 3d 0d 79 a5 bd
       0.21794951 0.09845496 0.064416565 -0.08079729
0002f0 c1 13 3a be 37 bd 48 3d 91 fe 44 3e e1 93 ef be
       -0.18171598 0.049008574 0.19237734 -0.4679251
000300 f2 9c 82 3d 27 a2 03 3e 53 fe e9 be e1 f6 17 3e
       0.06377591 0.12854825 -0.45701846 0.1484027
000310 79 66 d2 3e b7 12 43 3e 32 f3 30 be b8 5c b8 be
       0.41093805 0.19050108 -0.17280272 -0.3600824
000320 54 01 3d be 50 21 98 be 60 31 58 3d cf 75 a8 be
       -0.18457538 -0.29712915 0.052781463 -0.3290238
000330 71 62 cd 3e 00 1d c3 3d cd fa 44 bc e9 93 8d be
       0.40114167 0.09527016 -0.012022686 -0.2765191
000340 62 a3 b0 3d 59 0d 9e bf 28 98 9d bd a6 4e 94 3e
       0.08624913 -1.2347823 -0.07695037 0.28966254
000350 63 eb 82 3e 76 74 1a bd ab da f5 bb c1 19 8f be
       0.2557021 -0.037708722 -0.007502874 -0.27949336
000360 85 15 1f bf ad 7c f9 be a7 de f7 bc 48 e2 77 3e
       -0.6214221 -0.48727933 -0.030257536 0.24207413
000370 9d 38 0c 3f 42 84 ac 3e 2a 02 0a bf 34 82 2b 3e
       0.54773885 0.33694655 -0.5390955 0.16748887
000380 57 0f 55 bf e6 94 35 be 34 2e e9 3d 44 c8 3d bf
       -0.8322653 -0.17732581 0.11385766 -0.74133706
000390 dc ca 86 3e 04 a5 31 3d f7 a5 d6 3c 2f 4d 3d bc
       0.26326644 0.04337026 0.026202185 -0.0115540465
0003a0 59 8f 11 be 6d de 7e bd 4b d5 a6 be 8a 6a ec 3e
       -0.14214839 -0.06222384 -0.32584605 0.46175033
0003b0 70 4b 3a be 6b 44 09 bc 22 d9 b1 be 41 1a 7b 3d
       -0.1819284 -0.0083781285 -0.34735972 0.061304335
0003c0 bc ce 35 3e c0 a6 06 3f c6 27 fd 3d 27 a1 da bb
       0.17754644 0.5259819 0.12361102 -0.006672043
0003d0 ac 3c 55 3e 05 73 89 3e dc d2 6c be a0 79 8d bd
       0.20823926 0.26845565 -0.23127311 -0.06907964
0003e0 39 2e e9 3e 6f 26 5d be ef c4 34 be 68 fc 8d be
       0.45543078 -0.21596693 -0.17653249 -0.27731633
0003f0 78 94 bd be db 94 ee bd 15 e7 92 3c b4 2e 3a be
       -0.37027335 -0.11649486 0.017932454 -0.18181878

mu.bias f4 [4]
000000 fa 27 f3 bc 9f 01 8b bd 67 ce 1c 3e 33 1c 92 3d
       -0.029682148 -0.067874186 0.15313111 0.07134285

log_std.weight f4 [4, 300]
000000 b6 5d 75 3e 0c 68 70 3d 23 60 14 3e 09 b0 07 3e
       0.23961529 0.058692977 0.14489798 0.13250746
000010 55 b7 85 be 8f 02 e7 bd 69 65 84 bd f1 0a 57 3d
       -0.26116434 -0.11279785 -0.06464655 0.05250067
000020 a0 66 42 bd bc 9b da 3d e5 3b 69 3c b9 79 83 bc
       -0.047461152 0.10674235 0.014235471 -0.016049253
000030 52 29 0f 3d ff fa 8d ba 4f 2a 7c bd 97 52 16 3d
       0.034951515 -0.0010832249 -0.061563786 0.036699858
000040 af 09 a4 3d c0 e8 93 bd d6 ec 85 3e d4 91 8a 3d
       0.080096595 -0.07222128 0.26157254 0.06766096
000050 81 cb 3c 3e ca 65 d0 3e 9d c8 86 3b 1e 97 ee 3e
       0.18437006 0.4070266 0.0041132704 0.46599668
000060 7f 99 9b 3d bb d5 45 3d 8e 17 80 b9 cc 5f ef bc
       0.075976364 0.048299532 -0.00024431612 -0.029220484
000070 00 68 e1 bd 82 ac db bc bb 1d 72 3e 06 f2 17 3b
       -0.110061646 -0.026815657 0.23644154 0.0023185029
000080 b9 24 32 3d ff 75 cd 3e 22 08 b0 bd 6e c1 a4 bd
       0.043492053 0.40129086 -0.08595301 -0.08044706
000090 26 66 96 bd a5 20 13 3d 16 b0 d1 3d 8b f2 1f 3d
       -0.07343702 0.035919804 0.10238664 0.039049666
0000a0 a0 2b ab 3d d6 0b af 3e 7f a2 85 3e 64 62 e2 3d
       0.0835793 0.34188718 0.26100537 0.11053923
0000b0 ac 57 47 bc 28 f6 ef 3e 6a f6 de 3c cc 79 b6 3c
       -0.012166899 0.4686749 0.027217109 0.022274874
0000c0 0d 48 b6 be de 3d 23 3e c0 65 50 3e 4c 3f 83 3d
       -0.35601845 0.15941569 0.20351315 0.06408557
0000d0 58 29 1a 3f c2 fe 6b 3d db 4a 11 be 06 6e e4 bd
       0.60219336 0.057616003 -0.14188711 -0.11153798
0000e0 5e 5d c6 3d 31 2d b0 3d 4e dc 9b bd bc 68 29 3d
       0.09685777 0.086023696 -0.07610379 0.041359648
0000f0 fe 28 14 3d 26 21 9a 3d eb 61 8b bb cd 30 6a 3e
       0.036171906 0.07525854 -0.004253616 0.22870179
000100 0a 9b 40 3d d5 86 92 3e eb 17 23 bd 34 de 88 bd
       0.047022857 0.28618494 -0.03981773 -0.06683007
000110 32 ed 9e 3e 53 90 a1 3c 41 e6 31 3d 75 ba 7e 3d
       0.3104034 0.01972214 0.043432478 0.062189538
000120 28 18 fb 3d 3a 0e f7 bd 7a 92 7d bd ab 6a 84 bb
       0.12260467 -0.120632604 -0.06190727 -0.004041036
000130 c6 87 aa bc dd 1e 84 bd e2 59 d5 3d 64 85 b5 bd
       -0.020816695 -0.06451199 0.104175344 -0.08863333
000140 2d ef 82 37 a1 9a ed bc fe df af 3d e7 32 30 3b
       1.5608583e-05 -0.029004397 0.08587645 0.002688581
000150 37 ec 11 be b2 49 06 3e 62 f5 4b 3d 81 22 8b be
       -0.14250265 0.1311405 0.049794562 -0.27174762
000160 67 1d 27 3d bf 8e 04 3f da 12 bb bd cc bd 26 bd
       0.040799525 0.51780313 -0.09134455 -0.04070835
000170 7f 7b 19 3e 26 c1 f5 3b f4 db c1 ba 4a 76 e0 bc
       0.14988516 0.0074998317 -0.0014790283 -0.027400155
000180 23 72 a9 3e 07 0c d6 3b c8 60 5b 3e 19 54 81 bd
       0.33094892 0.0065321955 0.21423638 -0.063148685
000190 9f 04 41 3e 94 ed 1c bd 55 73 3c bd 6b 3c b2 3d
       0.18849419 -0.03831251 -0.046008427 0.0870293
0001a0 ef 9a 77 3b f6 ec 0d bc 0f 7d 87 3d 7f 04 e5 3d
       0.0037781557 -0.008662453 0.0661565 0.11182498
0001b0 f2 54 81 bd 4b 7a 06 3c a1 7b 11 bd b5 00 f5 bd
       -0.0631503 0.008207868 -0.035518292 -0.119630255
0001c0 38 45 36 3e 7c 51 e5 3d 5d f8 f0 3c e7 f0 47 bd
       0.17799842 0.111971825 0.029415304 -0.048813727
0001d0 27 7e aa 3c eb 09 3a 3d f2 77 e2 3c 4b 6f 27 3d
       0.020812107 0.045419615 0.027645085 0.04087762
0001e0 56 d1 6f 3e c1 d1 f1 3c 89 05 7e 3c 0f 74 de 3d
       0.23419699 0.029518964 0.015504249 0.1086198
0001f0 68 26 b5 3e 91 3c 18 3d 04 76 86 3e c3 57 2c 3e
       0.35380864 0.037167136 0.26261914 0.16830353
000200 fb 07 80 bd fa 7f c7 bc a5 e9 10 3d 32 59 d5 ba
       -0.06251522 -0.024353016 0.03537907 -0.0016277193
000210 50 54 0e bd e6 28 f6 bd 84 33 a8 3e 3d 88 81 3d
       -0.034748375 -0.120195195 0.32851803 0.063248135
000220 63 2d f9 bb 77 f4 17 be 51 c9 87 3d 38 ca e7 ba
       -0.0076042875 -0.1483935 0.06630195 -0.0017684167
000230 9b 93 86 3d 6d c7 82 bd ee 60 a6 3e a4 f6 03 bd
       0.06571122 -0.06385694 0.32495826 -0.032217637
000240 12 db 56 bc 88 e0 9a 3d bc 0b 06 3e bc db 80 bd
       -0.013113754 0.07562357 0.13090414 -0.06291911
000250 58 ae 51 3d 23 cf aa bc 14 fe 16 be b4 7a 80 3e
       0.051191658 -0.020850724 -0.1474536 0.25093615
000260 2c 1e 73 3e 36 13 c3 bb 19 47 54 3b d1 78 bc 3d
       0.23741978 -0.005953218 0.003239101 0.092027314
000270 c3 7f 05 3e 60 3e f3 3d 14 68 60 3e 7f 74 ff 3a
       0.13037018 0.118771315 0.21914703 0.0019489675
000280 92 cf 06 3e f5 92 10 3d ef 77 16 3e 0a 42 51 3e
       0.1316512 0.0352964 0.14694189 0.20435348
000290 cb d2 b7 bc ef 4f 9b 3d 4a a3 42 be a7 a9 20 3e
       -0.022439381 0.075836055 -0.19007602 0.15689717
0002a0 8b 79 65 3d c7 02 f0 3d 98 fa 38 bd a3 6d 6a bd
       0.056024116 0.1171928 -0.04516086 -0.057233464
0002b0 6b 6c 20 bd 28 22 71 bd 1d 81 aa 3d ec c8 4a bd
       -0.039165895 -0.058870465 0.08325408 -0.04950802
0002c0 cc c8 0e 3e ae 15 92 bc f5 c8 ee bd 1b 84 3f 3e
       0.13943785 -0.017832603 -0.11659423 0.18702738
0002d0 99 9f 0d 3e ee 30 88 bb 71 36 dd 3a 3a ab ae bd
       0.13830413 -0.0041562235 0.0016877187 -0.085287526
0002e0 ac 71 80 bc 80 04 b8 bc 65 9f bf bc 29 7e 9e bd
       -0.015679203 -0.022463083 -0.023391435 -0.07738907
0002f0 fb 97 07 3d e0 8d 4c bd 54 2d 06 be f4 14 a9 bc
       0.033103924 -0.04993999 -0.13103229 -0.020639874
000300 69 33 9c bb 63 ae 00 3e cc 88 cb bc 66 e7 f3 bc
       -0.0047668708 0.12566523 -0.024845503 -0.029773425
000310 32 15 80 3d 5b 07 5e bc 8e 7f 1f be d5 cf 70 3d
       0.06254043 -0.013551558 -0.15576002 0.058791954
000320 c4 7e 71 3d 2a fe d5 3d 8e 5c a7 bd 8f 79 ef 3d
       0.058958784 0.104488686 -0.0817195 0.11693107
000330 f0 b0 ba 3c e4 6d c8 bc 1a 0c 60 3d 6a 18 d3 3d
       0.022789448 -0.024466462 0.05469904 0.10307391
000340 94 57 ea 3d cb 15 27 3f 0f f1 68 bd 37 26 bc bd
       0.114424855 0.6526763 -0.056870516 -0.091869764
000350 89 7f 53 bd 42 57 54 bb 2b 69 a7 3b 3f 63 b0 bb
       -0.0516353 -0.0032400643 0.0051089725 -0.005382925
000360 aa a6 a8 3e d0 e6 a8 3e eb 4c 98 3d 84 e5 7d 3d
       0.32939655 0.32988596 0.07436546 0.06198646
000370 ae da 3b 3e 96 3a 20 3d 6b 97 12 3e 04 ef 18 3d
       0.18345138 0.039118372 0.14315574 0.037337318
000380 d0 76 16 3e cd 85 91 3d af 42 a6 3d ae 9b 9f 3e
       0.14693761 0.071055986 0.08118188 0.31173462
000390 6d 0b d7 bd 8c f6 4d 3c a9 18 fd 3d d6 c5 01 3b
       -0.10500226 0.012570988 0.12358219 0.0019801757
0003a0 90 ef ac 3c 27 34 61 3d 05 9d a9 bd 15 f6 78 3e
       0.021110326 0.054981377 -0.08281902 0.24312623
0003b0 ea 2e 15 bd 54 5f b6 3c 3f 3c ae bd 77 ff 9c 3c
       -0.036421694 0.022262253 -0.08507585 0.019164784
0003c0 e8 92 51 bd 3f b7 92 3d da 10 56 bd 1f cd 20 3d
       -0.05116549 0.07163858 -0.052262165 0.03925812
0003d0 3f 58 2a bd 6a 59 e2 3c 36 e4 63 3d a6 72 f8 3c
       -0.041588064 0.027630527 0.05563756 0.030328106
0003e0 56 cf 9f 3c ab 12 01 bd a2 ae 95 3d 0c bd 8c 3d
       0.019508045 -0.031511944 0.07308699 0.06871995
0003f0 90 1f bb bd 3c 7c 08 3e d1 9d c6 bc 13 37 9a 3c
       -0.091368794 0.13328642 -0.024245175 0.01882509

log_std.bias f4 [4]
000000 e1 40 b7 bf b3 77 b9 bf f9 e4 ae bf b3 68 be bf
       -1.4316674 -1.4489654 -1.3663627 -1.4875702
