MountainCarContinuous-v0_weights.pth (torch, 429711 bytes, 6 tensors)

hidden1.weight f4 [300, 52]
000000 65 bb 16 bf 7b b1 08 be b6 e4 21 be 0b 67 23 be
       -0.5887969 -0.13348953 -0.15809903 -0.15957277
000010 9b d2 10 be 60 01 d9 3e b7 04 96 be e3 0f 8d 3d
       -0.1414284 0.42383862 -0.29300472 0.06887796
000020 01 7e 96 3e ba a0 1c be 7b 4c e6 bd 19 92 48 3e
       0.29393008 -0.15295687 -0.11245056 0.19586982
000030 ce 7f 22 be 87 18 bd bd 99 9e 93 be 8c 63 c6 be
       -0.15869066 -0.09233194 -0.28831938 -0.38747823
000040 e7 6b 77 be 50 67 09 3e 2a bf f5 be 5d 2a 77 3e
       -0.24162255 0.13418317 -0.4799741 0.24137254
000050 73 8a 26 be 98 5c 3a be e8 02 14 be dc b0 37 3e
       -0.16263752 -0.18199384 -0.14454234 0.1793856
000060 e2 b0 81 3e ee a6 97 3e 3d 70 a0 bd 84 be ff 3d
       0.25330263 0.29619545 -0.07833908 0.1248751
000070 90 7d 36 3e 93 45 3c be 2a c4 3c 3e b6 45 f8 bd
       0.17821336 -0.18385915 0.18434206 -0.12122671
000080 47 81 d5 3e 17 88 87 be e7 c9 9a 3e e0 42 25 be
       0.41700193 -0.26471016 0.30232164 -0.16138792
000090 fd 0c a6 bd 0d a8 d1 be 7b f1 56 3e 89 1c c8 bd
       -0.08107946 -0.40948525 0.20990555 -0.09771068
0000a0 f6 25 09 be 76 d9 74 3d c1 03 f9 bd 1e 51 62 3e
       -0.13393387 0.0597777 -0.12158919 0.22101256
0000b0 4f 77 93 3e 57 b0 be 3e 90 f6 05 3d e7 97 5e bd
       0.28801963 0.37243912 0.032705843 -0.054344084
0000c0 59 07 7c 3d f9 2a 15 be 6f 84 81 3e 3b 08 16 be
       0.061530445 -0.14567174 0.2529635 -0.14651577
0000d0 43 ce 35 3f 0e a7 9e bf d7 5b 6b be 1d 52 00 3f
       0.71017855 -1.2394731 -0.22984253 0.50125295
0000e0 fd 38 51 3d 1c 62 2a 3e 86 09 3c be b2 21 b1 3d
       0.05107974 0.16638988 -0.18363008 0.08649005
0000f0 cc 58 94 be dc 60 44 be 91 35 8c 3d 04 e0 23 be
       -0.28973997 -0.19177574 0.068461545 -0.16003424
000100 1d c1 2e bd b5 2c 5f be b6 40 d0 bc 96 47 d8 bd
       -0.042664636 -0.21794398 -0.025421482 -0.10560529
000110 c0 fb 90 bc 9c 6c c2 3e f8 37 88 3c a6 5e ae bc
       -0.017698169 0.37973487 0.01662825 -0.021285366
000120 aa 54 0a 3e fa 07 66 be 3b 37 42 be fb 18 de 3e
       0.1350886 -0.2246398 -0.18966381 0.43378434
000130 7d e9 63 3e e6 4b 5e be de 2a ff 3e 11 9a 5c be
       0.22257037 -0.2170864 0.49837393 -0.21543147
000140 7d 1b a6 bd 61 38 47 3c 84 99 56 3d b9 cd 71 bc
       -0.08110712 0.012159438 0.052392498 -0.014758521
000150 fc 13 2f 3e 0a 33 c2 3e f9 dc 00 3d 8f 07 c1 be
       0.17097467 0.37929565 0.031460736 -0.3770108
000160 e4 be 1a 3e 02 56 33 be 6e c7 5a be 4e fa 58 be
       0.15111881 -0.17513278 -0.21365139 -0.21189234
000170 b0 19 9b bc b4 d0 3a be 09 d6 c7 3e bf 4e bf 3e
       -0.018933147 -0.18243676 0.39030483 0.37364766
000180 dd 44 07 be 2d 34 a2 bd b8 69 3f be 80 38 1a 3e
       -0.13209863 -0.07920108 -0.18692672 0.15060616
000190 e4 e4 3d 3e 5d 60 6c 3e b3 53 f4 3b 73 f9 c7 bc
       0.18544346 0.23083635 0.007456267 -0.024410939
0001a0 ba cf 5c 3f 44 0b 08 bf 10 69 a8 be 11 96 14 3d
       0.86254466 -0.5314219 -0.32892656 0.036275927
0001b0 d2 bc 68 3e 95 0f 91 bc 48 75 96 3e d3 3a ed bb
       0.22728279 -0.017707625 0.29386353 -0.0072396784
0001c0 43 4f b4 bd 81 53 b9 3e e3 26 b9 bd a1 f5 bb 3e
       -0.088041805 0.3619652 -0.0904062 0.36710837
0001d0 e7 9a 32 be 55 34 eb 3e b3 45 dc 3e c7 9c ca bd
       -0.17441903 0.45938364 0.43021926 -0.09893184
0001e0 2a b4 2c be 79 00 c7 3d 98 5d 54 3d 67 50 40 3f
       -0.16865602 0.09716887 0.05184707 0.75122684
0001f0 5c d3 b5 3d 08 d9 47 be e2 db 19 3f b5 e5 a7 be
       0.08878204 -0.19516385 0.6010114 -0.3279244
000200 d2 7c ec 3e 86 84 0e 3f f2 79 b1 3d 78 10 b8 ba
       0.4618898 0.55670965 0.08665837 -0.0014042994
000210 df e0 8b bd 21 d3 00 be 8f 54 bd 3c 74 b8 28 be
       -0.0683 -0.1258054 0.02311161 -0.16476613
000220 09 eb 11 3e 0c 24 a5 bd ef 30 3f 3e c7 ad c3 bd
       0.14249815 -0.08063516 0.1867101 -0.0955463
000230 e5 8f 14 be 5e 45 aa be a5 74 f9 3e 2f 0c 07 bd
       -0.14508016 -0.33256048 0.48721805 -0.032970604
000240 b3 73 2b bd 63 d8 75 3e 71 10 eb bc 08 c7 85 bd
       -0.041858386 0.24008326 -0.028694363 -0.06532103
000250 2d 8e a7 be b1 8f 14 bd 4f 9b a1 be 52 20 df bc
       -0.3272566 -0.036269847 -0.31563804 -0.027237091
000260 1a b6 86 be 03 a8 5f 3e be 0a 8c 3e ef 28 60 bd
       -0.26310807 0.21841435 0.27351946 -0.054726537
000270 3d 08 a4 3e dc 7e 18 40 a9 ea 96 3e 85 44 97 3d
       0.32037535 2.382743 0.29475906 0.07386116
000280 f3 ae 7f be 78 03 bc be 19 e6 9c 3e 59 bb a4 3d
       -0.24969082 -0.36721396 0.306443 0.08043546
000290 af cd 7d bd 55 8c ea bd f7 11 4e be 4c 7c 19 3f
       -0.061963733 -0.114525475 -0.2012404 0.59955287
0002a0 58 e6 7b be b5 52 d7 bd 3e 81 df bd 82 ef ae 3d
       -0.24599588 -0.10513822 -0.10913323 0.08541776
0002b0 5f 31 92 3d 87 c1 cc be 95 57 69 3e 67 9a da 3e
       0.07138323 -0.399914 0.22787316 0.42695925
0002c0 ce e4 85 bb 60 69 82 3e 20 92 33 3f db 0b 8b 3e
       -0.0040861135 0.2547102 0.70144844 0.27157483
0002d0 f8 d1 02 be b1 b2 50 be 8c b0 b0 3e 3d 55 f0 3d
       -0.12775409 -0.20380665 0.34509695 0.11735008
0002e0 74 2f 0e be 5f 9b fb bd 4e 5e c7 3d 4c fd 84 be
       -0.1388529 -0.12285494 0.09734784 -0.259745
0002f0 2b 37 a3 3e d2 3e 40 be 5e d1 66 3e 56 9d 9b 3e
       0.31878027 -0.18773964 0.22540805 0.30393475
000300 01 5a 03 3d 64 36 a0 be 7f cc e9 bd a3 b0 d6 3e
       0.032068256 -0.31291497 -0.11415958 0.41931638
000310 c6 a3 1b be b0 4b 32 bd 3f 33 98 be d2 3e 49 be
       -0.15199193 -0.043529212 -0.29726598 -0.1965287
000320 81 e3 83 3e 66 cc 85 bd 89 31 25 be cb e5 a9 3e
       0.2575951 -0.065331265 -0.16132177 0.3318313
000330 2c a0 07 3e 7e 5d 8e bc f0 ea 66 bd 31 89 50 bd
       0.13244694 -0.017378565 -0.056376398 -0.050912086
000340 af 0c bd 3e bb cb be 3f ec b6 78 bd 9f 83 60 3d
       0.3692374 1.4905924 -0.060721323 0.054813024
000350 7e 3b 09 3e 74 58 25 3d d7 21 d9 bd 5d c7 ce 3e
       0.134016 0.04036756 -0.106021576 0.40386477
000360 c4 8d 2d 3d 42 80 59 be 42 7a cc 3e db b1 8b bd
       0.042371526 -0.21240333 0.39937025 -0.068210326
000370 16 b1 f0 3b 63 70 b2 bd 14 1c 52 be d0 8c aa bb
       0.007345329 -0.08712842 -0.20518523 -0.0052047744
000380 c8 e0 97 bd 82 29 e0 3d 86 97 97 be 8c d3 9d bc
       -0.074159205 0.10945417 -0.2960779 -0.019265912
000390 a5 71 6e bd 93 58 f1 3e 76 e6 61 3e ae 18 0f 3e
       -0.05821385 0.4713789 0.2206057 0.13974258
0003a0 7e a0 6f 3d 94 fb 12 be d9 53 d8 bd de 0f d4 3e
       0.058502667 -0.14353782 -0.10562868 0.41418356
0003b0 ca 5d 77 3e ae d9 bc 3c 8b 83 33 be 2c 61 b4 3e
       0.24156871 0.023053017 -0.17530648 0.35230386
0003c0 bf a6 7a bd 66 a2 02 3e 95 b6 bd bd fc fd af 3e
       -0.061194178 0.12757263 -0.092633404 0.34373462
0003d0 20 ea e3 bd 82 4d b8 3d 90 49 08 be 43 40 c5 3e
       -0.1112864 0.089991584 -0.13309312 0.3852559
0003e0 ad d1 28 be 97 76 74 be 34 f2 2a bd 59 d6 f0 3e
       -0.16486235 -0.23873363 -0.04173489 0.47038534
0003f0 94 c5 b0 bd da 55 0f be c5 14 dc 3d e3 5d 63 3d
       -0.08631435 -0.13997594 0.10746149 0.05550946

hidden1.bias f4 [300]
000000 26 d4 19 bf ca c5 64 be 23 70 8e bd b8 7c d1 be
       -0.6008934 -0.22341076 -0.06954982 -0.40915465
000010 d9 03 85 be ad 84 c9 be ed d9 1b be e3 57 c4 be
       -0.25979498 -0.39359036 -0.15219851 -0.38348302
000020 cb 4c e1 be f4 49 7f 3e 20 90 b9 be 8b 05 99 be
       -0.440039 0.24930555 -0.3624277 -0.2988704
000030 08 bc 1b bf a3 b6 3c bd 70 90 6e bd 49 d1 6e be
       -0.6083379 -0.046072613 -0.058243215 -0.23322023
000040 4b a7 76 be bb 52 30 be 64 bf 45 be 87 4c 3d be
       -0.24087255 -0.17219059 -0.19311291 -0.18486224
000050 d5 5e fb be 93 5d bb be 0f 4f 5c be 2c 1a 48 be
       -0.4909579 -0.3659483 -0.21514533 -0.19541234
000060 1c 00 57 be 2f 55 f8 bd 92 38 62 be b8 e3 16 bf
       -0.20996135 -0.121256225 -0.22091892 -0.5894122
000070 c8 23 86 be c8 45 88 be 1e 98 d4 be de b8 df be
       -0.26199174 -0.2661574 -0.41522306 -0.4369573
000080 36 31 f8 bd 5c fb a3 be 8c fc d4 bd a2 93 95 be
       -0.12118761 -0.3202771 -0.10399732 -0.29214197
000090 90 bc 9b be f8 83 d1 be c9 3d e2 be e5 26 43 be
       -0.304173 -0.40920997 -0.44187763 -0.19057806
0000a0 f1 84 10 bf ea 3e cd bd 0b c8 88 be 3e 8a ac be
       -0.5645285 -0.100217655 -0.2671512 -0.3369922
0000b0 94 97 07 bf a8 d0 47 be 85 ab cd be b0 bd c7 bd
       -0.52965665 -0.1951319 -0.40169922 -0.09752977
0000c0 c4 ec 83 be 73 6b 70 3c b0 97 a3 bc ac 07 c4 be
       -0.25766575 0.014674055 -0.019969791 -0.38287103
0000d0 d9 e1 9a bd c4 de 92 be 38 b5 d4 be 38 bf e9 be
       -0.07562608 -0.28685582 -0.4154451 -0.456537
0000e0 07 32 c5 be 60 9d 2b be 75 74 ad be ad 37 73 3e
       -0.3851473 -0.16759253 -0.33877912 0.23751707
0000f0 1e 9d 46 be de c5 29 be 0a de 80 be 16 94 20 bf
       -0.19395873 -0.16579387 -0.25169402 -0.6272596
000100 88 3f 5c be 80 1d 17 3c 40 3e 36 be e9 ff 13 bd
       -0.2150861 0.009223342 -0.17797184 -0.036132727
000110 b5 53 a3 3d 60 83 20 be 8d d0 2c be 5d 4e 96 be
       0.0797495 -0.15675116 -0.16876431 -0.2935666
000120 a6 ff a5 be 89 56 1f 3d d9 ee a5 bd 63 25 9e bd
       -0.32421607 0.038900886 -0.08102197 -0.07721975
000130 e9 89 fd be 06 1f a5 be cf 6b dd bc 90 ac ef bd
       -0.4951928 -0.32250232 -0.027028946 -0.117028356
000140 57 0e 0f be 97 2e a6 be eb 6e 40 be 80 f4 ca be
       -0.13970314 -0.3245742 -0.18792312 -0.39639664
000150 2d 8d c4 bc cf 03 67 be 79 c0 b9 be 57 ac 73 be
       -0.0239931 -0.22560047 -0.36279657 -0.23796211
000160 bf aa 96 be c3 89 d0 be 01 de f7 bd 71 62 71 be
       -0.29427144 -0.40730104 -0.12102891 -0.23572709
000170 37 9c 18 be 25 b9 fe be 76 86 6a be 17 37 f0 be
       -0.14903341 -0.4975063 -0.22902855 -0.4691703
000180 f8 11 dd bd aa 47 7d be 6b 7b 09 be 5a 2d 4c be
       -0.10794443 -0.24734369 -0.13425986 -0.19939175
000190 1b b7 b6 be e1 25 60 bd da ce 2c be 14 fe 4f be
       -0.35686573 -0.054723624 -0.16875783 -0.20311767
0001a0 99 90 dd bd d9 58 b2 bd 43 db 0b bf 34 66 c2 bd
       -0.108185954 -0.087083526 -0.5463144 -0.0949215
0001b0 4b 1b b4 be 65 bd 18 be d5 54 a3 be 08 f5 97 be
       -0.35177073 -0.14915998 -0.3190066 -0.29679132
0001c0 99 cf cc be a4 c4 56 be c7 d7 b9 be 68 23 02 be
       -0.40002134 -0.2097345 -0.36297438 -0.12708819
0001d0 8b 0d d7 bd 44 e3 e4 bd 88 d5 ef 3d 07 f1 f3 bd
       -0.1050063 -0.1117616 0.1171065 -0.11911207
0001e0 d0 d8 8a be ea 8a c9 bd f5 ec 41 be 53 ac aa be
       -0.2711854 -0.09840949 -0.18938048 -0.33334598
0001f0 48 01 aa bd 0e e1 aa be ff ba 4d bd eb 7d 13 3d
       -0.08301026 -0.33374828 -0.05022716 0.036008757
000200 64 be b2 be 2f c4 38 be bb bc 24 be ff 33 f0 bd
       -0.34910882 -0.18043588 -0.1608762 -0.117286675
000210 54 1f 53 be 3f 9b f2 be 60 23 08 bd 19 4c fb bd
       -0.2061742 -0.47384068 -0.03323686 -0.12270374
000220 61 28 0d 3d 40 00 b0 be 9b 79 d8 be 27 6e e6 bd
       0.034462336 -0.3437519 -0.42280278 -0.11251479
000230 f4 c5 f4 bd 06 4f 26 bd 25 af 89 bd c3 a3 01 bf
       -0.11951819 -0.040602706 -0.06722859 -0.50640506
000240 fd 77 07 bf 34 c6 c0 bd 5a be de be 17 68 e0 bc
       -0.5291746 -0.09412804 -0.43504602 -0.027393384
000250 f6 f5 d3 be ac db 7c bd 7f 3a 91 be d7 50 99 bd
       -0.4139859 -0.061732933 -0.2836494 -0.07486122
000260 d7 a8 b0 be 13 28 04 be 31 a3 65 be 90 e5 20 3e
       -0.34503815 -0.12905912 -0.22425534 0.15712571
000270 c9 fa 28 bd 64 9f 72 be f6 7f 25 be 34 ab a5 be
       -0.041254792 -0.23693615 -0.16162094 -0.3235718
000280 93 34 d5 be 7c d1 9b be fd 84 05 bf 31 60 be be
       -0.41641673 -0.3043326 -0.5215605 -0.37182763
000290 39 bf 08 bf d4 35 9e 3d c5 ca bc 3d 09 2b a2 be
       -0.5341678 0.07725111 0.09218363 -0.31673458
0002a0 bb 3b b3 be cc 37 43 be 99 d4 9d be d1 fb 6c be
       -0.35006508 -0.19064254 -0.30826262 -0.23142935
0002b0 6d 34 2b be 93 5a f7 be cc 0e 8e be 31 bd 91 be
       -0.16719218 -0.4831129 -0.27745664 -0.28464654
0002c0 a3 ef ad bd 55 18 07 bf 89 ad 08 be a3 6c ba 3d
       -0.08492973 -0.527715 -0.13347448 0.09102752
0002d0 75 4a cf be 24 14 80 be 99 42 ad be 9c b7 af be
       -0.40486494 -0.25015366 -0.33839872 -0.3431977
0002e0 ac 70 0d 3c 9c 90 f9 be ea 47 fd be af fe c3 be
       0.00863282 -0.4874314 -0.4946893 -0.38280246
0002f0 f4 77 87 be 97 3f 47 be 91 76 84 be c9 8a 8d be
       -0.26458704 -0.19457851 -0.2587171 -0.27644947
000300 f7 44 8b be c0 3d 09 bf 12 42 d7 be 43 06 e0 bd
       -0.27201054 -0.5360985 -0.42042595 -0.10938694
000310 65 36 8f be da 96 93 3d 48 5c bb be 17 05 0c bf
       -0.27971187 0.07206507 -0.36593843 -0.54695266
000320 ee 8c a1 be 3b 66 06 3d 07 9c 54 bd 48 82 f0 be
       -0.31552833 0.03281234 -0.05190661 -0.46974397
000330 ec 78 25 be 51 fa b9 be 6f e5 a0 be 3c 56 48 be
       -0.1615941 -0.3632379 -0.31425044 -0.19564146
000340 69 f9 85 3c 5d b4 16 bf 7b 44 bf be 92 3f 0e bf
       0.01635428 -0.5886896 -0.37356934 -0.5556575
000350 f0 d8 80 be 6b 30 8a be 2a e7 59 be 06 cd 02 bf
       -0.2516551 -0.26990065 -0.21279588 -0.5109409
000360 9b 16 34 be 8d 9f 42 be 59 5d 26 bf 2f a2 f7 3d
       -0.17586748 -0.19006176 -0.6498619 0.12091481
000370 4b 96 10 be 2d d6 8b be 49 73 14 be d0 1d b1 be
       -0.14119832 -0.2731184 -0.14497103 -0.34593058
000380 34 e8 ca be 28 80 84 be 32 2f 7f be b4 92 b5 3c
       -0.39630282 -0.25879025 -0.24920347 0.02216468
000390 7c c5 7f be d9 af 0c bf ac 59 bb be 2a 00 1c be
       -0.24977678 -0.5495582 -0.36591852 -0.15234438
0003a0 04 50 b0 be c5 0a 36 be fe 2f 60 be 0d 34 18 bd
       -0.34436047 -0.17777546 -0.21893308 -0.037159014
0003b0 a6 25 b2 bd 2b ef 8e bd 44 7c 9e be d7 72 bc be
       -0.08698587 -0.069792114 -0.30954182 -0.36806366
0003c0 09 7f 5a bd b8 2b df bc 68 c1 9e bd 5d de 32 be
       -0.053343806 -0.027242526 -0.07751733 -0.17467637
0003d0 21 04 a6 3b 4e c3 b3 be 90 8c 80 be e8 c3 97 be
       0.00506641 -0.35109943 -0.2510724 -0.29641652
0003e0 18 d6 03 bf 3f d9 a9 be d9 ce 05 bf d1 e2 75 be
       -0.51498556 -0.33173558 -0.5226875 -0.24012305
0003f0 c2 36 29 3c a2 25 9e be ec ea ea 3d 4e fd 43 be
       0.010327997 -0.30888087 0.11470589 -0.19139597

hidden2.weight f4 [300, 300]
000000 4d d8 98 be 10 00 41 be 13 79 de be 67 95 d3 be
       -0.29852524 -0.1884768 -0.43451747 -0.41324922
000010 cb 47 c9 3e 1a a0 45 3d 45 77 94 3e d2 4b df bc
       0.39312586 0.048248388 0.28997245 -0.027257834
000020 19 ad ce bd 90 71 7e bd 8a e5 41 3d 02 1b 1f bf
       -0.100916095 -0.06212002 0.047338046 -0.62150586
000030 c9 0f 6d bf 46 72 39 bf ab cc b2 bf cd 07 a4 be
       -0.9260221 -0.7243999 -1.396871 -0.32037202
000040 f5 d0 af bf da 28 dc 3e 34 e1 25 bd 2a 42 f0 bd
       -1.3735644 0.42999917 -0.040497974 -0.1173137
000050 a7 0e 2c 3d 03 11 52 3e 6b db 13 be 78 28 d1 be
       0.04200616 0.20514302 -0.1443917 -0.40851188
000060 cf 4a c3 be 1b 6c b2 bf c6 5e 63 be c8 41 20 be
       -0.38143012 -1.3939241 -0.22204122 -0.15650094
000070 1b b0 8f bf bd 27 81 bf 3d d1 91 3d e1 e9 9a bf
       -1.1225618 -1.0090252 0.07119987 -1.2102624
000080 a2 0a 4a 3f 3e 3c 8f be 0b 28 61 bf 3c 0a a5 be
       0.78922474 -0.2797565 -0.87951726 -0.3223437
000090 81 72 2d c0 e1 e6 ae 3d f3 3c 7e bf d8 cd 92 bf
       -2.7101138 0.085401304 -0.9931175 -1.1469069
0000a0 ec 19 a9 be 80 16 3e be 35 7d 91 be d8 04 af 3e
       -0.3302759 -0.1856327 -0.28415838 0.34183383
0000b0 c0 73 d1 be 47 32 a1 be 06 e4 40 3e 53 70 35 bf
       -0.40908623 -0.3148367 0.18836984 -0.7087452
0000c0 49 16 07 be db 28 cf be ee f4 7b bf 27 6e 6e be
       -0.13192095 -0.40460858 -0.9842061 -0.23284207
0000d0 d4 a6 39 3d 90 7a 58 be 10 83 83 bf 8f 3d 91 3e
       0.045325115 -0.21140504 -1.0274372 0.28367278
0000e0 7e e2 bf be 0f 17 a0 be ce 1d 95 bf 35 05 9d be
       -0.37477487 -0.31267592 -1.1649721 -0.30668035
0000f0 15 60 1e bf aa 17 0a be 86 e5 e6 bf fd 98 9e be
       -0.6186536 -0.1348559 -1.8038795 -0.30976096
000100 c5 db 94 be 62 80 8c 3d 62 52 b1 bf 06 4e dd bd
       -0.2907392 0.068604246 -1.3853266 -0.108058974
000110 05 5a 55 3e 1d 4f 02 bf 75 b6 93 be 1d d6 8c bc
       0.20835121 -0.5090197 -0.2885014 -0.01719194
000120 13 9e 3d bf 26 67 a5 3d a0 07 45 3d 07 d5 81 be
       -0.7406933 0.08076315 0.048102975 -0.2535784
000130 67 95 7e be aa a6 95 be 40 bf bc bd 34 58 11 bf
       -0.2486168 -0.29228717 -0.092161655 -0.5677521
000140 a8 10 3b bd ad 32 ab 3e b9 2a 6b 3f fb 5f 51 bf
       -0.04567018 0.334371 0.91862065 -0.8178708
000150 c1 e9 3b bd 2b 93 52 c0 cf 03 90 3e c6 33 ab bd
       -0.045877222 -3.2902324 0.28127906 -0.083594844
000160 42 79 71 bf 92 f2 16 be 07 d0 70 bf e9 30 47 be
       -0.9432565 -0.1474097 -0.94067425 -0.19452251
000170 87 8e bc 3c 2e bc a4 bd 10 d5 80 be 9c a3 f3 be
       0.023017181 -0.08043705 -0.25162554 -0.47585762
000180 72 44 5d be 47 39 a2 be 31 18 04 bf d4 5c c4 bf
       -0.21608141 -0.31684324 -0.51599413 -1.5340829
000190 d1 e3 7e bd 7b e9 2b bf d9 e8 81 bf d1 db 0c 3d
       -0.06222898 -0.6715314 -1.0149184 0.03438932
0001a0 79 79 9b bf a3 dc e2 be 59 62 d0 3d f7 ef a6 3d
       -1.2146446 -0.44308957 0.10175008 0.081512384
0001b0 04 43 e7 3d ea 08 07 bf f9 e9 5d 3d b5 f7 36 3a
       0.11292079 -0.52747977 0.05417821 0.000697966
0001c0 6d 54 a0 be ff 25 4e bf a2 02 a4 be 93 26 a0 be
       -0.31314412 -0.8052673 -0.3203326 -0.3127943
0001d0 16 6e 10 c0 48 50 b9 be b7 fc 86 be f4 09 c7 be
       -2.256719 -0.36194062 -0.2636468 -0.3887478
0001e0 6f 15 9a c0 cf a6 0c bf fb 64 21 bf a6 5e 85 bf
       -4.8151164 -0.5494203 -0.6304471 -1.041951
0001f0 72 94 06 3e f6 bb d7 3e 9d 08 67 bf 54 bc 08 3f
       0.13142565 0.4213559 -0.9024752 0.53412366
000200 bc 9e 2b be 5f da 6b bf d9 99 5a be 22 f6 29 bf
       -0.16759771 -0.9213008 -0.2134775 -0.66391194
000210 e5 41 f9 bd 23 84 26 bf d4 1a 67 bf e3 9b 81 bf
       -0.121707715 -0.65045375 -0.9027531 -1.0125698
000220 a8 b4 92 be c5 d8 84 bf a1 86 a6 be a2 e9 8a be
       -0.28653455 -1.0378653 -0.3252459 -0.27131373
000230 c5 a3 c2 bc d5 c0 31 bf 8f f5 06 bf da 28 89 3e
       -0.023759732 -0.69434863 -0.5271844 0.2678898
000240 33 58 43 bf d5 53 b9 3e fc 4b 50 bf 72 e7 60 be
       -0.76306456 0.3619677 -0.8136594 -0.2196329
000250 f0 58 99 3e cb 63 9c 3d 3c aa 37 bd fc d5 8e bf
       0.29950666 0.076362215 -0.044840083 -1.1159053
000260 52 37 c5 be 7d a7 b8 bf 81 d4 b1 bf ae d6 ee 3e
       -0.3851877 -1.4426113 -1.3892976 0.46648163
000270 cd 89 c3 be 30 40 83 bf 12 2a 86 3e 61 e3 45 bf
       -0.3819107 -1.0253963 0.26203972 -0.7730008
000280 8b 02 a1 be cd 8c 23 c0 33 46 d6 be d2 34 a8 3e
       -0.31447253 -2.5554688 -0.41850433 0.328528
000290 6b e5 21 bf 2d 4c a9 3e e3 2e 5e 3e 0f b5 62 bf
       -0.6324069 0.3306593 0.21697573 -0.88557523
0002a0 6b ed c1 bd 54 a0 7e bd e0 0f d2 bd 11 74 9b bf
       -0.09469112 -0.06216462 -0.10256934 -1.2144796
0002b0 e8 1f 02 be 3b de 84 bf dc 65 1b bf 72 c4 ac 3e
       -0.12707484 -1.0380319 -0.607023 0.33743626
0002c0 db 4d c8 be 56 3e cc be a9 41 88 3e 74 f4 9c 3b
       -0.391219 -0.3989131 0.26612595 0.0047898833
0002d0 ac aa e8 3e 0a 67 24 3f 8a ca 80 be 63 7f 1e bf
       0.45442712 0.64219725 -0.25154525 -0.61913127
0002e0 a6 d6 4e 3e f3 05 e3 bd 5c d3 44 be 9a 8a 2a be
       0.2019907 -0.11085119 -0.19221252 -0.16654435
0002f0 19 2c f7 bf 0a 0e 66 bf 6d bb a1 bd 06 29 88 be
       -1.9310333 -0.8986517 -0.07897077 -0.26593798
000300 fe 17 a4 be 69 1b f4 3b c5 11 f3 be 7c b9 26 3e
       -0.32049555 0.0074495566 -0.47474495 0.16281694
000310 a4 4a 07 bf 6c 78 2d be b5 44 1a 3e f8 fa 22 3c
       -0.5284827 -0.16940469 0.15065272 0.009947531
000320 3e 51 7d bf ec eb 81 bf c3 85 a6 3f 2b 93 83 3e
       -0.9895209 -1.0150123 1.3009571 0.25698218
000330 de 64 b3 bd 14 23 d2 be 3f 68 e6 3d fc c0 1a 3d
       -0.08759473 -0.41042387 0.11250352 0.0377817
000340 0a 26 4a 3f a2 13 01 c0 e6 45 5d 3c eb 6b 47 bf
       0.78964293 -2.0168233 0.013505435 -0.77899045
000350 e2 f1 98 bf ab 68 6a c0 76 06 cd bc 87 71 08 be
       -1.1948817 -3.6626384 -0.025027495 -0.13324557
000360 60 18 90 3b ca bc 53 bd 7f 20 9b c0 d8 6e 9d 3d
       0.004397437 -0.051693715 -4.847717 0.076871574
000370 f9 30 9d bf 72 85 41 c0 cd 31 96 bf ae 3e a2 bf
       -1.228057 -3.0237699 -1.1733948 -1.2675378
000380 af cb ba 3d de 56 3f 3e 18 50 65 bf 69 8d 0d bf
       0.09120881 0.18685481 -0.8957534 -0.552939
000390 63 e1 ed bd 63 fd fb be fc a8 31 be 93 d9 d4 3d
       -0.11615255 -0.49216756 -0.17349619 0.103930615
0003a0 02 02 e4 bd e2 2f 5b bb 56 08 e5 bf c1 db 74 3e
       -0.111331955 -0.0033445288 -1.7893169 0.23911954
0003b0 fe 4e 16 bc 23 7e 4b bf cf 00 04 c0 97 bd eb bd
       -0.009174107 -0.79489344 -2.0625494 -0.11510771
0003c0 e2 94 1c bf 9e 0b 13 c0 55 73 53 bf 68 54 cb be
       -0.6116468 -2.297584 -0.8259786 -0.39712834
0003d0 6e a8 bd bd 45 1b 31 bd 5f d6 7a bf 44 2a 5b 3e
       -0.09260641 -0.043238897 -0.97983354 0.21402842
0003e0 f4 c4 75 3c 02 e1 7a 3e 62 eb b3 bd 4f 1e de bf
       0.015000571 0.24499896 -0.0878513 -1.7353
0003f0 23 2b 98 bd a7 b3 2e 3f 5b ea b0 3d 2d e5 c4 be
       -0.07430103 0.6824288 0.0863845 -0.38456097

hidden2.bias f4 [300]
000000 69 7f 61 3e 9a 3a d1 bd 29 ef d5 be c6 f4 89 bd
       0.2202126 -0.102162555 -0.41784027 -0.0673614
000010 e4 22 1e 3c 16 f7 00 bc 84 99 4d be 5b 72 1c 3e
       0.009651873 -0.00787141 -0.20078093 0.15277998
000020 f1 a8 3e bd df 24 6d 3d ff d6 92 be 2a ad 0b 3e
       -0.046547834 0.05789649 -0.28679654 0.13640276
000030 8e 9e 63 3d 0f 15 89 be 87 40 a1 bd 78 00 1c be
       0.05557113 -0.2677388 -0.07873636 -0.15234554
000040 24 55 34 3d 56 cd 48 3c 58 d8 b6 be fb ff a2 bd
       0.04402651 0.012255987 -0.35711932 -0.07958981
000050 be 74 51 3d bd d3 aa bb 8f 33 f7 bc 48 77 41 3e
       0.051136725 -0.0052132295 -0.030175952 0.18893158
000060 88 9e 73 bd ba f3 1b 3d 08 1c 9f bd de b7 87 bd
       -0.05947736 0.038074233 -0.077690184 -0.06626867
000070 d0 41 ce be 54 c0 7d be a9 e6 40 be 1f ee ad bd
       -0.40284586 -0.24780399 -0.1883799 -0.084926836
000080 1e e4 4a bd e6 42 52 3e 17 6a 92 bc 7c 83 81 3e
       -0.049533956 0.20533332 -0.017872853 0.25295627
000090 1b c3 fc be 06 e6 36 be 3c 1f ea bc 14 86 06 3e
       -0.49367604 -0.17861184 -0.028579347 0.13137084
0000a0 ae eb 17 bf b7 13 53 3d 3b 80 a7 3d 45 78 13 be
       -0.59343994 0.051532473 0.08178755 -0.14401348
0000b0 9e 19 3b bd 46 3e c7 bd 5f 6a 18 bd 42 59 a3 3d
       -0.045678727 -0.097286746 -0.03721082 0.07976009
0000c0 93 47 be 3e 53 bf cc bd ad 12 20 be 00 7c 1b 3e
       0.37163982 -0.0999743 -0.15632124 0.15184021
0000d0 2c 15 80 3e e8 a8 da bb 64 14 4e bd 97 db 60 3e
       0.25016153 -0.006672967 -0.050312415 0.21958767
0000e0 ee 9d 85 bd dd 24 ef 3d 15 29 5a 3e 7c 7d 4c ba
       -0.06524263 0.11676953 0.21304734 -0.0007800681
0000f0 59 12 ad 3d 30 bf 8a bd d8 0b aa be 43 60 81 bd
       0.08450765 -0.06774747 -0.3321216 -0.063171886
000100 e8 50 3f be 4c d0 c4 bd 0f f2 7f be d9 fe 3b 3e
       -0.18683207 -0.09610042 -0.24994682 0.18358935
000110 53 c5 a7 bd 8b 13 a3 bd 72 e9 90 bd 9c d9 96 3c
       -0.081919335 -0.07962712 -0.07075776 0.018414311
000120 0c ff 9a bd 76 af d0 bd 18 7c 87 bd 22 95 72 3c
       -0.075681776 -0.101897165 -0.06615466 0.014806064
000130 71 6f 29 be 63 f4 d4 be ab ac 55 3c ab 92 86 bd
       -0.16546418 -0.41592702 0.0130416555 -0.065709434
000140 7e 57 18 3e 6b 63 e2 bd da 78 8a 3e 8d 2a 8a bd
       0.14877126 -0.11054119 0.27045327 -0.06746397
000150 9d 75 22 be ce 52 ac 3e 74 e0 92 3d cf 0a 87 bd
       -0.15865178 0.33656925 0.07171717 -0.065938585
000160 08 37 9e 3d d9 54 a1 bd 6f dc 54 bd ea dd 3d bd
       0.0772534 -0.078775115 -0.051968034 -0.046354212
000170 8f 9c 1c 3e 6b 14 6c be 52 ba 98 bd 08 d1 0e bd
       0.15294097 -0.23054664 -0.07457413 -0.034867316
000180 d5 c3 ff bd 70 2a f1 3d 4a 8a d5 bc 90 1a 68 bd
       -0.12488524 0.117756724 -0.026066918 -0.056665957
000190 87 b3 83 be 7b 9c 50 3b 8d 46 25 bd 51 0b 9d be
       -0.25722906 0.003183155 -0.040350486 -0.30672696
0001a0 72 64 59 3e 0a d0 95 be 3a 59 b7 bd 01 88 a1 be
       0.21229723 -0.29260284 -0.089525655 -0.31549075
0001b0 be c7 96 3b 8c a4 7e 3d 97 eb a2 bc 7b 68 14 3e
       0.004601448 0.062168643 -0.019887729 0.14492981
0001c0 cc ee 58 3d 7a 72 7f bd ec 43 01 bd d4 3e 3a 3e
       0.05296211 -0.062365033 -0.031558916 0.1818803
0001d0 8c bc 76 bd b2 f7 c7 3e db 30 44 3d 43 d9 ca be
       -0.060238406 0.39056164 0.047898155 -0.39618883
0001e0 47 aa c4 be 17 83 40 3e 01 0b 07 bf cd 8a f3 bc
       -0.3841116 0.18800007 -0.52751166 -0.029729271
0001f0 60 5a 02 bf 04 01 47 bd 3b a5 ad bd 0d 16 5d be
       -0.5091915 -0.048584953 -0.08478781 -0.21590443
000200 a1 6e 17 be 8b 42 96 bd 2c d9 14 be 7e e1 c8 bd
       -0.14788295 -0.07336911 -0.1453597 -0.09808634
000210 c8 31 7d bd 77 63 bf bb 0a 56 88 bd 78 9b 24 bf
       -0.061815053 -0.0058407146 -0.06657036 -0.64299726
000220 ef 4d ae 3c a8 c6 e4 3d ca cb 35 bd 14 91 30 3e
       0.021277396 0.11170703 -0.0443838 0.17242843
000230 05 c0 b1 3d fc 83 a0 bd cc 5f 0f be cb 4f e7 bd
       0.08679203 -0.07837674 -0.14001387 -0.11294516
000240 17 5e 94 3d c8 99 ec bc f2 0f f0 bd ca 37 31 3e
       0.07244509 -0.028881922 -0.11721791 0.17306438
000250 9a 99 38 bf 4b f9 e7 bd 9e cf aa bd a9 b5 17 bd
       -0.7210938 -0.11326846 -0.08340381 -0.03703848
000260 52 31 87 3b 03 80 bf bd a8 1d 82 bd f1 7f cb 3c
       0.0041257525 -0.09350588 -0.06353313 0.02484128
000270 eb bc 53 3e 3e 8a 34 bf 20 93 23 3d 2d ff 2d be
       0.20677535 -0.7052344 0.03993523 -0.16991873
000280 82 d0 09 3e a3 69 99 bd bf 9a 57 bd 3a 5d f2 3d
       0.13458446 -0.07490852 -0.05263781 0.11834188
000290 5c 37 d5 be 40 e1 24 3e 56 e1 f2 3c 16 02 78 3e
       -0.41643798 0.16101551 0.029648464 0.24219546
0002a0 73 a8 19 bd 94 24 8d be f0 4e 37 3d 69 c5 2a be
       -0.03751416 -0.2756697 0.044753015 -0.16676868
0002b0 bd 0e 7e bd 74 40 fe bd 96 0c 1f 3e e8 12 80 bd
       -0.062025774 -0.12414637 0.15532145 -0.06253606
0002c0 65 b6 46 bd ce 25 bb be a0 dc 99 3e 0f aa 8a bd
       -0.04851379 -0.3655228 0.30051136 -0.06770717
0002d0 2d 40 a3 bd f0 f2 c4 bc 36 23 ec bd 61 0b 6d 3e
       -0.07971225 -0.024041623 -0.115301535 0.23148872
0002e0 6f 54 9c bd 26 58 10 bc 52 40 8d be dd fa d3 be
       -0.07633292 -0.008810079 -0.27588135 -0.4140233
0002f0 ba b3 0c 3d 5a 5e 73 bb 8e 08 ce bd 3c db 81 bd
       0.034351088 -0.0037135095 -0.100602254 -0.06340644
000300 f5 7a 7d 3d 3e 87 f1 bb fd 47 c8 bd 3a 80 86 bd
       0.06188484 -0.0073708585 -0.09779356 -0.06567426
000310 a8 71 9f bd 63 1a 4a be 11 56 70 be b6 7a 85 be
       -0.0778535 -0.19736628 -0.23470332 -0.26070184
000320 6d c7 e1 be f9 b9 b3 3e 3d 81 3d 3e 8c 2d 94 bd
       -0.44097462 0.35102823 0.18506332 -0.0723525
000330 20 8c 01 3d b2 7a 05 3e c4 41 a2 3e 5c 0a 39 3d
       0.031627774 0.13035086 0.316908 0.045175895
000340 31 e0 36 be f5 f6 37 3e 9e 4b 84 bd 8c a4 4c 3e
       -0.1785896 0.179653 -0.06459735 0.19984645
000350 bc ec 9e 3e 7a 5b 80 bd b6 89 9e bd 25 22 47 bd
       0.3103999 -0.06267448 -0.0774111 -0.048616547
000360 c9 fc 5b 3e 2c 47 75 3c 7d 36 95 bd b8 3f cd 3b
       0.21483149 0.014970582 -0.072857834 0.0062636994
000370 92 d2 71 bd 64 ec 36 3e dc 4b 09 3e ee 2e 28 be
       -0.059038706 0.17863613 0.13407844 -0.16424152
000380 be 46 13 be 6c b0 e1 3d ee e4 74 be 00 36 93 bc
       -0.14382455 0.11019978 -0.23915455 -0.017970085
000390 52 66 a0 bd 5e 98 dc bd 6b 1a b7 bb 75 08 85 be
       -0.07832016 -0.10771249 -0.005587866 -0.25983015
0003a0 a8 4a 58 3e 85 58 99 3e e8 de bc bd 05 4c cf be
       0.21122229 0.29950348 -0.092222035 -0.40487686
0003b0 6f 4a 40 3d 40 6d 18 bf d3 84 88 bd bf 7e 40 be
       0.046945985 -0.595417 -0.06665959 -0.1879835
0003c0 44 d6 bb bd b6 d7 35 3d d1 46 dd bd c7 68 aa 3d
       -0.09171727 0.04439517 -0.10804523 0.08320766
0003d0 0c 24 56 bd b2 c2 07 3e 35 ef 73 be 89 d2 7f 3d
       -0.05228047 0.13257864 -0.23821719 0.06245664
0003e0 7c 23 86 3d 65 ba ab bd c0 11 80 bd d4 8e ca 3d
       0.06549737 -0.08385161 -0.062533855 0.098905236
0003f0 f6 cb 41 3e c5 cf cd be 52 b7 53 3d 48 68 d0 3d
       0.18925461 -0.40197578 0.0516885 0.1017614

mu.weight f4 [1, 300]
000000 b8 9f 7d bc e8 c6 82 bd bf ff 7d 3c 04 63 b1 3c
       -0.015479974 -0.063855946 0.015502869 0.02165366
000010 9b 96 d1 3d a0 d4 39 bf 74 84 41 be c5 86 00 c0
       0.10233804 -0.72590065 -0.18898183 -2.0082257
000020 52 bd 4b bf fd cd 7c 3f 05 d6 4b bf b7 d7 39 3f
       -0.79585755 0.98751813 -0.7962344 0.7259478
000030 ee 2f 64 3d d4 67 6e bf bd eb 1f bf 74 28 95 3f
       0.05570977 -0.9312718 -0.62469083 1.165297
000040 97 0e 68 3f 9a d3 6b bd ac f3 31 bf 05 68 38 3d
       0.9064726 -0.057574846 -0.6951244 0.045021076
000050 7d 54 08 bf 79 7a 0a 3f 38 4d 69 bf 63 ca 66 b9
       -0.5325392 0.5409313 -0.9113345 -0.00022009904
000060 24 22 ec bd 7c 6c 1a 3f 26 8d 45 bf 63 58 01 be
       -0.11529949 0.60321784 -0.771685 -0.12631373
000070 ca 9e 12 bf ae 89 ed 3e 89 8f 17 3f 63 e1 93 3f
       -0.5727354 0.46394104 0.5920339 1.1553158
000080 ef e9 78 3d cf 22 1c be de 2e 20 bf 7d ac 5a bb
       0.06076997 -0.15247653 -0.62571514 -0.0033366971
000090 00 55 b8 bf 3f db 0d 3f 09 9f 82 be b9 50 09 3d
       -1.440094 0.5541267 -0.2551196 0.03352425
0000a0 f8 7f bc be a3 70 86 be d9 4b 1f bf ba 47 8d bf
       -0.36816382 -0.2625781 -0.6222511 -1.1037514
0000b0 f7 07 7e 3f 96 5b 58 3f 59 b0 03 3f 7a 3f 90 3d
       0.99230903 0.8451475 0.5144096 0.07043357
0000c0 f4 2e 1b 3d 9e 03 51 3f ee ae 46 be 37 5c 33 bf
       0.037886575 0.81646144 -0.19402668 -0.70062584
0000d0 96 68 b9 bb 00 da 75 3f e0 fa 6d c0 2c 43 75 bf
       -0.0056582196 0.96035767 -3.7184372 -0.9580562
0000e0 84 64 37 bc 56 22 25 bf bd fa 3c bc cb 7d 48 bf
       -0.011193398 -0.6450552 -0.01153439 -0.78316945
0000f0 6a eb 46 3f b4 0b 87 bc c3 52 85 3b 87 81 86 bd
       0.77702963 -0.016485073 0.004068704 -0.06567674
000100 15 03 09 3f 14 62 35 3d d8 0f 64 3f 63 61 88 3c
       0.5352033 0.044282988 0.89086676 0.016648
000110 be 84 b3 3d 99 9d bf bc f6 98 75 bd f2 4c 49 bf
       0.08765553 -0.023390578 -0.059960328 -0.78633034
000120 ba 34 48 bc 9a f0 a7 bc 10 60 19 bd 30 0d c4 be
       -0.012219602 -0.02050047 -0.037445128 -0.3829131
000130 07 5c d6 bd 36 36 6b 3f f5 5a 31 3f 39 d5 02 c0
       -0.104667716 0.91879594 0.69279414 -2.044264
000140 99 4a 19 bd 41 e9 86 bd 15 13 96 3f 86 8c c1 bd
       -0.037424657 -0.065874584 1.1724573 -0.09450631
000150 ca fd ba 3e f8 12 c5 bd 1c a8 da be 8f 69 0f 3c
       0.3652175 -0.096227586 -0.42706382 0.0087531945
000160 37 a7 0a bf 29 f3 99 3d 99 a3 06 bd 15 da a3 be
       -0.541614 0.07517082 -0.032870863 -0.3200232
000170 aa cb 9c be 60 0d 4a 3f 73 d3 3f be ea 86 7d 3f
       -0.30624133 0.7892666 -0.18733005 0.9903399
000180 83 8e 8f 3c f8 e7 96 3d 10 76 19 be 7d 7d c1 ba
       0.01752401 0.07368463 -0.14986444 -0.001476213
000190 5a dd 8d bd 08 ad 9d be 55 9f bc 3d 28 ac ad bf
       -0.06926985 -0.30796075 0.09210078 -1.3568163
0001a0 85 58 78 3d dd 87 c2 bf 76 cb 44 3c 9f 9e 2d 3c
       0.060631294 -1.5197712 0.0120113995 0.0105969
0001b0 52 9b 8a bf 2c 4f 17 be 73 bd 03 c0 98 ee 6a bf
       -1.082865 -0.14776295 -2.058438 -0.91770315
0001c0 21 f3 16 3f 5c 90 90 be 02 08 41 be ba 65 03 bc
       0.58964735 -0.28235137 -0.18850711 -0.008019859
0001d0 04 18 65 3b 25 0d 0b 3e ec 08 2a 3f ec 94 a8 be
       0.0034956941 0.13579233 0.66419864 -0.32926118
0001e0 5f 57 a0 bc 1e 52 83 bf 32 51 23 c0 9a 05 ac 3f
       -0.019572912 -1.0259435 -2.5518308 1.343921
0001f0 b5 fc 2c c0 be 26 8e 3c 0c 5f 8d 3c 9a ad 05 be
       -2.702924 0.017352458 0.017257236 -0.13054505
000200 00 ab 08 bd 38 b2 7c bf db 90 10 be f2 6c cb 3a
       -0.033366203 -0.9870944 -0.14117758 0.0015520139
000210 f6 ee 44 ba 03 a5 22 c0 e7 83 11 bc 23 2d 32 bf
       -0.00075124146 -2.5413215 -0.008881546 -0.69600123
000220 d3 a6 79 3f ed f9 90 c0 05 d4 01 bf 47 d3 46 bf
       0.9752018 -4.5305085 -0.5071414 -0.77666134
000230 f7 da 30 3f 73 40 a4 3d 86 0b 80 bf 81 a6 b2 be
       0.69084114 0.08020105 -1.0003517 -0.34892657
000240 04 2b 03 bf b1 2e cf 3c 39 23 1b bf 37 99 19 3d
       -0.5123751 0.025290819 -0.6060062 0.037499633
000250 14 00 49 bd a5 7d ec bf 18 d9 48 bc 08 40 52 bf
       -0.04907234 -1.8475844 -0.01225879 -0.82128954
000260 76 23 fc be ef af ce be c9 e8 92 3d 39 44 2e bf
       -0.49245805 -0.40368602 0.071733065 -0.6807285
000270 cf 25 82 3e 1f 31 ec 3e 33 9d 20 3e 76 40 d8 be
       0.2541947 0.46131226 0.15684967 -0.4223668
000280 b7 46 b6 3e 47 5e 86 bc d6 7d 8a 3b 6c ac 02 bf
       0.35600826 -0.016402377 0.0042264266 -0.51044345
000290 ba 05 4a bf e8 8d 32 3f e3 cb cb 3f 1a a4 46 c0
       -0.7891499 0.6974778 1.5921596 -3.103766
0002a0 39 7b c4 bd 0f 79 5d c0 60 7e e2 be ee df 1e 3f
       -0.09593815 -3.4605138 -0.4423704 0.6206044
0002b0 02 87 70 3c 0a a1 90 bd 43 6b 9a 3f c9 26 46 bd
       0.014680626 -0.07061966 1.2063984 -0.048376832
0002c0 70 53 ae bb d0 bd 8a 3f 8b 09 84 bf 8a 6c ea bb
       -0.005320005 1.0839176 -1.0315412 -0.007154052
0002d0 fb 07 8b bd cf 4b f8 be b4 72 d6 bc 93 67 14 3b
       -0.067886315 -0.48495337 -0.026177742 0.0022644743
0002e0 1e a4 d0 bd 34 c3 16 3f 50 77 29 3c b4 64 27 c0
       -0.10187553 0.58891606 0.010343388 -2.6155214
0002f0 d1 98 cb 3e 38 e9 b2 bf b6 2f 6b 3a f4 a4 2e bf
       0.39765027 -1.3977423 0.0008971648 -0.6822045
000300 df 04 0e 3f e0 bd 5d be ad 72 64 3e 56 e9 ac 3c
       0.5547618 -0.21654463 0.2230937 0.021107357
000310 fd e2 f9 38 df af e3 3e 5b 90 8f bf 28 32 e8 be
       0.00011915525 0.44470116 -1.1215929 -0.45350766
000320 bf c0 ae 3f 5f 75 22 3e 69 97 62 3c aa 8a e6 3b
       1.3652571 0.15865086 0.013830044 0.007035573
000330 32 d3 e7 3f af 4b 5a 3d 48 37 48 3e 49 d0 e3 be
       1.8111327 0.053294834 0.19552338 -0.44494846
000340 a6 e9 9a 3f 81 34 e2 bf 98 ad 92 37 e9 e9 44 3f
       1.2102554 -1.7672273 1.7485392e-05 0.7691942
000350 35 75 94 3d e7 89 86 3c 48 89 e7 3c d6 96 53 3c
       0.07248918 0.016423179 0.028263703 0.01291438
000360 37 62 93 3d 65 cc de 3e 97 3e 82 bc 0b 75 1a 3f
       0.07196467 0.43515316 -0.015898986 0.60334843
000370 ea fc d5 bc 51 5c 8d be d3 a7 a5 bf c6 f6 6b bd
       -0.026121575 -0.27609494 -1.2941841 -0.05760839
000380 b4 75 09 3f 4a 04 d3 3e 84 24 5f bf 22 a7 0b 3f
       0.53695226 0.4121421 -0.87165093 0.545519
000390 cd 4f 4b 3d 9d 67 29 3d 60 a6 df bd 34 38 9a bf
       0.04963665 0.04135858 -0.109204054 -1.2048402
0003a0 08 47 58 bf d0 ae 25 3d 19 28 d2 bf df 35 3b bf
       -0.84483385 0.040449917 -1.6418487 -0.73129076
0003b0 47 7a cc 3e 86 ef 9e bf 88 e9 88 bc 23 07 aa bf
       0.3993704 -1.2416847 -0.016712919 -1.3283428
0003c0 8c 01 94 bd f1 16 8c bf 01 c2 3a ba c8 37 75 bf
       -0.072268575 -1.0944501 -0.0007124246 -0.9578824
0003d0 07 91 76 bf c5 fe 2e 3e dd 25 ed bc 87 26 88 bf
       -0.96315044 0.17089374 -0.028948719 -1.0636758
0003e0 b5 3d 21 3f ff 2e 67 3f ca 91 96 3f 31 8f 25 3c
       0.6298478 0.90306085 1.1763241 0.01010494
0003f0 44 cb ac bf 36 1e 08 c0 14 f6 b6 3d 37 b8 88 3f
       -1.3499532 -2.126844 0.089336544 1.0681218

log_std.weight f4 [1, 300]
000000 f6 49 82 bf 4f c5 e7 bd bc e5 e5 3d 28 18 4c bd
       -1.0178821 -0.113169305 0.11225459 -0.049827725
000010 1c 8f aa be 1f 99 63 3f 45 5b 0d bf 8f 2c a8 3f
       -0.3331231 0.8890552 -0.5521739 1.3138598
000020 10 ad 9d 3e 1c 7f cc 3e c6 89 01 3f ab 2d 95 be
       0.307961 0.39940727 0.5060085 -0.29136404
000030 d0 89 0b 3e 9d 42 8a bd 5a 16 eb 3e 29 49 11 bd
       0.1362679 -0.06750987 0.4591549 -0.03547016
000040 20 30 c1 be 62 62 1e bf 0a a9 0c 3f 3d bd 81 3d
       -0.3773203 -0.6186887 0.54945433 0.063349225
000050 e0 8f 55 3e c0 15 82 3e 44 df 30 3e 62 d5 cb be
       0.20855665 0.2540722 0.17272669 -0.39811236
000060 3d a2 fc 3c 55 82 b4 3c 58 ee 48 3f 79 cd ac 3c
       0.03083908 0.022034803 0.78488684 0.02109407
000070 aa 59 db be 1b dc 3d 3e 87 b5 d9 be b2 0d 88 3e
       -0.42841846 0.18540995 -0.42521307 0.2657295
000080 f9 01 9b bd 5d 88 0c bf 16 09 22 3e 35 02 64 bf
       -0.07568736 -0.54895574 0.15823779 -0.8906587
000090 ca 6d 9f 3f b1 11 fa 3c 99 d3 ef 3d f2 de 25 bf
       1.245538 0.030526014 0.11710281 -0.6479331
0000a0 8e 87 d8 3e ae d5 60 bf 94 b1 db be ef 24 15 3f
       0.4229092 -0.8782605 -0.4290892 0.5825948
0000b0 6b ee 02 bf 60 c3 05 bf 50 19 73 bf 43 2a 83 3e
       -0.51145047 -0.52251244 -0.949605 0.2561818
0000c0 af 20 6e bf c3 cc 36 be 58 19 a0 bd 90 2f f6 3e
       -0.9301862 -0.17851548 -0.07817334 0.48083162
0000d0 5f c8 03 bf e4 5c 88 3c 13 e0 09 40 fc 9b 88 3d
       -0.5147762 0.016645856 2.1543014 0.06670377
0000e0 d1 13 a8 3d 08 0f 20 3f be 1c df be 1c a3 73 bd
       0.08206905 0.62522936 -0.43576616 -0.059481725
0000f0 63 7e 41 be 2f 90 89 bd 36 dc f5 3e 4b 34 3a bd
       -0.18895869 -0.06716954 0.4801957 -0.045460027
000100 89 a1 8c 3f 23 2f 88 3d c2 8e 18 be 39 98 d7 be
       1.0986797 0.066496156 -0.14898208 -0.42108324
000110 ef 5f 60 3d cd c7 3f bd c9 a6 db bd 26 b2 73 3e
       0.05477899 -0.046821404 -0.10725171 0.23798427
000120 5b 40 71 bd 9b 7d 88 3d ce 34 0c 3e d0 3b 42 3f
       -0.058899265 0.06664582 0.13692018 0.75872517
000130 70 2e 79 3e eb 9f 4c 3d fe 73 b0 3e b1 f6 5a 3f
       0.24334121 0.049957197 0.34463495 0.8553267
000140 60 28 33 bf 90 57 41 3e 1f ee d4 bd 60 ed fd bc
       -0.6998348 0.18881059 -0.103969805 -0.030996978
000150 c1 fe 86 3f 0b 18 ea bf 47 d8 6b 3d b9 ec ae bd
       1.0546495 -1.8288587 0.057579305 -0.08541245
000160 81 fd 7a bc 76 07 f9 3d 64 3f 13 3e 06 a0 58 bd
       -0.015319229 0.12159626 0.1437965 -0.052886985
000170 30 0c 9d be 3a 81 fc be e1 70 8b bb 98 6e 09 bf
       -0.3067336 -0.49317342 -0.0042553996 -0.5368438
000180 9b 21 13 be 12 1f ad 3e 2c d4 13 bf 28 4c 33 bb
       -0.14368288 0.33812767 -0.57745624 -0.0027358625
000190 d0 34 6a 3f c3 95 f4 3d e6 eb 09 c0 90 f1 57 3f
       0.91486835 0.11942627 -2.155023 0.8435297
0001a0 2d 67 c8 be 69 5a 39 3f a6 eb 2b 3c 14 90 71 3f
       -0.39141217 0.7240358 0.010493195 0.9436047
0001b0 e3 c9 91 3e 33 e4 80 bf 87 09 5d 3f 6b a9 0a bd
       0.2847434 -1.0069641 0.8634266 -0.033852976
0001c0 29 25 3e 3e 77 46 d3 be 3d fb 8e bc e3 d3 29 bf
       0.18568863 -0.41264698 -0.017453784 -0.6633894
0001d0 34 06 8a bd 4d e8 6f be b3 29 a7 3e d1 41 4e bc
       -0.067394644 -0.2342846 0.32649 -0.012588934
0001e0 ee f2 91 3d 25 63 66 3e 13 e6 b1 3f 9c 31 21 3e
       0.07126413 0.22498758 1.3898338 0.1574158
0001f0 88 99 85 3f d8 d8 28 bb e0 62 88 3d 76 e6 c8 3d
       1.0437479 -0.0025764015 0.06659484 0.09809582
000200 2e 39 23 bd 07 93 b3 3e 67 91 49 3e 98 1c b2 bd
       -0.039849453 0.3507311 0.19684373 -0.0869686
000210 a5 e2 25 bc d8 5f 85 3f 4c 70 1d 3c 87 ea 19 3f
       -0.010124837 1.0419874 0.009609293 0.60123485
000220 96 41 cc 3d 20 3c 29 40 5d b0 b6 bd d4 51 ad 3e
       0.09973447 2.6442947 -0.089203574 0.33851492
000230 19 cc d6 3e 12 52 25 3a 3b 76 9b be 08 91 30 bf
       0.4195259 0.000630648 -0.3036364 -0.689713
000240 e2 0e 87 3e bd b7 57 be c9 0c a7 3f fe 31 f9 be
       0.26378542 -0.21066184 1.3050777 -0.48670954
000250 10 22 64 3f bc 35 88 3f 1a 96 89 bd 8f ae b6 3e
       0.89114475 1.0641398 -0.06718083 0.35680053
000260 68 83 20 be 05 b5 17 3f 41 0f 7e bd 3f 69 b5 3e
       -0.15675128 0.5926059 -0.062026266 0.3543186
000270 0c e5 65 3d 2e b9 bb 3d 6c a4 4c 3f d4 bc cb be
       0.05612664 0.091661796 0.7993839 -0.39792502
000280 e7 60 a8 3e c2 b3 db bc 2e b9 8c bd 3b a9 d4 be
       0.3288643 -0.026819114 -0.06871258 -0.41535363
000290 69 fc 55 bd 53 e2 2e be 15 6d 2c 3f 6a 39 63 3f
       -0.05224267 -0.17078523 0.67353946 0.8875948
0002a0 22 ee 63 3e ff 17 f0 3f e2 dd 05 3e 58 9b 17 3e
       0.22258809 1.8757323 0.13072923 0.14805353
0002b0 0c 9b ab bd 44 ef d0 3e 02 1f 94 3e 07 4d 8e 3d
       -0.08379182 0.40807545 0.28929907 0.069482855
0002c0 98 b9 01 3d be 5c de be 6d 06 91 c0 43 26 f2 bd
       0.031671137 -0.43430132 -4.5320344 -0.11823704
0002d0 39 ba 8b 3d 4e 69 03 be bd b4 b7 3c b1 78 f8 be
       0.068226285 -0.1283314 0.02242505 -0.4852958
0002e0 39 4f 11 be cb 5d a3 be 04 af 9e 3e f0 e2 95 3f
       -0.14190377 -0.31907496 0.309929 1.1709881
0002f0 87 d9 9c 3e 66 65 b5 3e f6 35 5f 3b cc f7 3b 3e
       0.3063471 0.35428923 0.0034059263 0.18356246
000300 d2 4f a7 bc 35 3d e9 be 8f 03 dd 3d 0f db 3b 3d
       -0.020423803 -0.4555451 0.107916944 0.045863207
000310 75 a5 9e bd 21 16 52 bd 4b 88 2e be 62 e0 16 3e
       -0.07746402 -0.051290635 -0.17044179 0.14734033
000320 32 66 45 3e ef 4c a5 be e2 b6 16 bf e7 cf d2 3c
       0.19277266 -0.32285258 -0.5887281 0.025733901
000330 da c1 ff 3e b4 7e 14 bf f7 67 68 bf 74 c6 90 3e
       0.49952585 -0.58005834 -0.9078364 0.28276408
000340 dd 7e 0a 3e 7a 86 4d 3f 23 9b 2a bd 84 6a 3b be
       0.13524957 0.8028332 -0.041651856 -0.18302351
000350 75 59 8e be 54 9b 19 bd 0e 89 96 bd 94 9d 6b 3d
       -0.27802625 -0.037501648 -0.0735036 0.057523325
000360 d6 c4 ea be 40 4a 19 3e 26 dc 30 bd 14 70 f6 3d
       -0.458533 0.1496973 -0.0431787 0.12033096
000370 c6 98 1a be 96 7d 90 be bd 3b 85 3d 7a 75 9c bc
       -0.15097341 -0.28220814 0.06505535 -0.019098986
000380 a0 79 8e 3e c3 c5 3d 3f e7 d4 ee 3e b4 95 a0 3e
       0.27827168 0.74129885 0.46646807 0.31364214
000390 65 ec f5 3e 26 1a 3d 3f 99 61 da be 87 a8 2b 3f
       0.48031917 0.73868024 -0.42652586 0.6705403
0003a0 f2 49 92 be ec 6d e1 be 73 f1 75 3f 25 48 4d 3f
       -0.2857204 -0.44029176 0.9607155 0.8018821
0003b0 d1 77 24 3f 07 b9 07 3f 9e 22 be bd bf 78 c0 3e
       0.64245325 0.53016704 -0.092839465 0.37592122
0003c0 22 d3 aa 3d 09 dd 26 be ea bc 8d be 4c 3e 2b 3e
       0.08341052 -0.16295256 -0.27683192 0.16722983
0003d0 70 de 8e be 4f 27 74 bf db 19 d8 3e b5 12 94 3f
       -0.2790408 -0.9537248 0.42207226 1.1568209
0003e0 23 c4 01 bd 54 05 a7 3e 1e c0 0f be f5 37 92 bf
       -0.03168119 0.32621253 -0.1403813 -1.1423327
0003f0 a5 be 32 3f 2b ca ee 3f d2 bb 96 3e b1 b2 3b be
       0.6982215 1.8655447 0.2944017 -0.18329884
