Walker2d-v2_weights.pth (torch, 459975 bytes, 8 tensors)

hidden1.weight f4 [300, 67]
00000000: 2018 6cbe b6a3 b5be 55b2 01be 9003 053b
00000010: 70dd ecbe ab8f 1c3e 896e 9dbe b401 c23e
00000020: 1615 a0bd b048 393e 01d8 363e 0ba9 7dbd
00000030: 617e 9b3b 0d1e b0bd bd84 2b3e 69c8 af3d
00000040: 69f2 22bc 3f09 3a3f 26f2 b7be 988e e5be
00000050: adad 83bf 981d d3be 0546 883f 679a 0d3e
00000060: 9144 c1be 099d 9f3e efff 26bf 996c 4a3f
00000070: 6a15 113f a087 8ebe c1e5 6cbe ec7a aebf
00000080: 45b3 9bbe 50b0 87be e0fb 88be 5049 a43e
00000090: 19e9 153f 08f9 e3bd 61bc 073d fd37 7f3e
000000a0: 2b9c 51bf 2678 c33e 6f1a 64bf a47a efbe
000000b0: 551c 88bf f767 a03e 1981 75bf a438 033f
000000c0: 71f3 74bf 08e6 d83d 873e 253f 08f1 a13e
000000d0: b9bf 113f aef0 17bf 10ae 29be 2ca2 893e
000000e0: 6fcd 353e 699f febc 0b85 1f3f 177c 78bf
000000f0: a073 723e 8b51 073f 702c 863e 233d c3be
00000100: def4 d8bd 3b23 8c3f 3052 423e 6500 68be
00000110: 3e84 d23f effd ebbe 5f06 943e b782 03bf
00000120: 93c5 623e e866 1a3e 77ee 2ebe 66b7 733e
00000130: 6d20 1b3e 6a53 54bd aeeb 55bc c354 24be
00000140: 8e56 71bb 758e 2fbd a565 703a 1611 dbbd
00000150: f8ff f3bd cf7f 64bd 9b31 57bf ac24 45bd
00000160: 7b09 0cbf dee9 e63e 7dd1 403f 457b 5d3f
00000170: 844f 0cbf 2cbb 0bbd 32ca 393b 46ba bbbd
00000180: 9cf5 443e 1fa5 8c3e 4c61 563f e656 71bf
00000190: c93a 823e cee8 fe3c 7ea0 60bf f0df c4be
000001a0: 31eb 623d e74a d83e 4393 66bd 01bd 65bd
000001b0: 6df6 99bf 87dd 303f b014 35bf fc22 2e3d
000001c0: 7fde cb3e 28f2 253e 3dde 803f b1c8 243e
000001d0: 9651 a7be a510 27bf 36f8 983e 2b2d 8c3e
000001e0: 86f5 f5bd 0823 783f 7988 a3be cf9d 713e
000001f0: 1efe 53bf 3201 afbd 60b8 92be 41d2 9bbf
00000200: 0fd5 dbbe c4cd 4fbe 8c79 e43d 6afd 9a3e
00000210: 7c08 113f dfd5 be3e 2a8e 5dbd 04c0 aebf
00000220: 5629 9d3f 5df9 7b3f 2343 463f d97e 853e
00000230: d037 f83d d6bd ebbe d83a 623d ffe5 4b3e
00000240: 1296 bbbe 8b94 b33d f1b7 02bc 6b3c 8dbd
00000250: 7161 1b3e 0544 d93d 7f46 1dbd 8076 a6bd
00000260: 2244 65be d5a5 5fbe dd5e 2abf 4c73 78be
00000270: 8d96 25bf 3731 89be ff56 123e 0af2 2fbf
00000280: 2ffb 59bd b6af 2f3e 3e7a 50be 66cd 69bf
00000290: 9014 2bbe 157e 1fbf 6526 cdbf f124 98be
000002a0: b3d9 b33e 3571 00be 08d9 f03e f930 6fbe
000002b0: 4960 1d3e de82 053f 14ae bb3e bd57 a8bd
000002c0: 2fb2 213f 9a69 ac3e 0a1e 2e3e 49c6 19bf
000002d0: 2fc4 b1be 696c 9dbd 6def 14bf 9832 37be
000002e0: 9bae 8ebe b34d ac3e 9693 123f 2b32 02be
000002f0: 1960 ea3e b092 203f 7b87 b33c 4fe8 5abf
00000300: c7ff 39be 23c1 e33e 1d33 af3b a63a fdbe
00000310: a64a 78be 0d0b e33d 6ecf 4f3e 3f3e a9bd
00000320: a5a7 ca3e 8a52 e13e 36ba 62bf c56e 3c3f
00000330: 23c9 843e 6f1c fe3d 47b1 ed3f 5a28 f03e
00000340: a5dd 83be f975 3cbd a31b cf3e 01a3 853d
00000350: cacb af3d 7e2c 313d 8556 f03c 2c08 42be
00000360: 4fa4 0bbe 59d5 8fbd 378a 483e f68c 8abd
00000370: ce1a 953e 10e1 c13e c940 d4bb 5197 f63e
00000380: 106d 5b3e 31f0 a43e 8bdb 943e 1333 263e
00000390: 0d41 97be befb 7dbd 7d2d d0be 7986 ec3d
000003a0: 4be4 1bbd e4aa 9f3e 4563 cabe dc8f 4f3e
000003b0: e77d 763e 6283 dc3e d523 3b3e 3788 15bf
000003c0: 938f 913e 02f8 10be c792 39bf 41ea 483f
000003d0: 348c 633e fded 983d ec4d 0a3d a9d0 953d
000003e0: 4f61 40bf 017f b5be 2c06 433d c7d0 cebe
000003f0: 0f5c 66bf 32ff b13e 99ef 0b3f c723 9f3e
-0.23056078 -0.35476464 -0.12665685 0.0020296313 -0.46262693 0.1528918 -0.30748394 0.37891924
-0.07816522 0.18094134 0.17855836 -0.06192879 0.00474529 -0.08599482 0.16749854 0.08583147
-0.00994549 0.7267036 -0.35926932 -0.44835353 -1.0287377 -0.41233516 1.0646368 0.13828431
-0.37747625 0.31174496 -0.65234274 0.79071957 0.566733 -0.2783785 -0.23134519 -1.3631263
-0.3041021 -0.26501703 -0.26754665 0.32087183 0.58558804 -0.11131483 0.033138636 0.24923702
-0.8187892 0.38177603 -0.89102834 -0.46773255 -1.0633646 0.3132932 -0.9590011 0.512583
-0.9568396 0.1059075 0.64548534 0.31629205 0.5693317 -0.59351623 -0.16570306 0.2688154
0.17754148 -0.031081872 0.6231238 -0.97064346 0.2367692 0.528588 0.26205778 -0.3813258
-0.1059358 1.0948251 0.18976665 -0.226564 1.6446607 -0.46092173 0.2891111 -0.5137133
0.22145681 0.15078318 -0.17083155 0.2380043 0.15149088 -0.051837362 -0.013056679 -0.16047959
-0.0036825272 -0.042860467 0.00091704197 -0.10696618 -0.119140565 -0.05578595 -0.84060067 -0.048130676
-0.54701966 0.45100302 0.75319654 0.8651622 -0.5480883 -0.034114048 0.0028349278 -0.09166388
0.19234318 0.27469727 0.83742213 -0.9427322 0.25435475 0.03111687 -0.8774489 -0.384521
0.055400077 0.42244646 -0.056292783 -0.05608845 -1.2028328 0.69088024 -0.7073469 0.042513832
0.3981819 0.16205657 1.0067822 0.16092183 -0.32679433 -0.6525977 0.2987687 0.2737821
-0.120097205 0.96928453 -0.31940058 0.23595355 -0.8280963 -0.0854515 -0.28656292 -1.2173539
-0.42935988 -0.20293337 0.11155996 0.30271465 0.5665357 0.37272546 -0.054090656 -1.3652349
1.227824 0.98427373 0.7744619 0.2607334 0.121200204 -0.4604327 0.0552319 0.19911955
-0.36637932 0.08768567 -0.007978425 -0.068962894 0.1517389 0.10608677 -0.03839731 -0.08128071
-0.22389272 -0.21840604 -0.66551 -0.24262732 -0.6468285 -0.2679536 0.14290999 -0.687287
-0.053218063 0.17156872 -0.20359132 -0.9132904 -0.16707063 -0.6230176 -1.6027342 -0.29715684
0.3512703 -0.12543185 0.47040582 -0.23358525 0.15368761 0.5215281 0.3665625 -0.0821986
0.6316251 0.33674318 0.17003646 -0.60068184 -0.3471999 -0.07686693 -0.58177835 -0.17890394
-0.27867588 0.3365303 0.5725645 -0.1271445 0.45776442 0.6272383 0.021915188 -0.85510725
-0.18163978 0.4448329 0.0053466693 -0.49458808 -0.24247226 0.11086092 0.20293972 -0.082638256
0.39581028 0.44008285 -0.88565385 0.7360652 0.25934705 0.12407767 1.8569726 0.46905786
-0.2575504 -0.046010945 0.40450773 0.06525231 0.085837916 0.04325532 0.02933813 -0.1894843
-0.13636898 -0.07023115 0.19583975 -0.067651674 0.29122013 0.37867022 -0.0064774496 0.4816232
0.21428323 0.32214502 0.29073748 0.16230421 -0.29541817 -0.06200766 -0.40659705 0.11549086
-0.038059514 0.31185067 -0.39528862 0.20269722 0.24071465 0.43068987 0.18275388 -0.5841097
0.2842985 -0.14157107 -0.7248959 0.78482443 0.22221452 0.07467268 0.03376572 0.073151894
-0.7514848 -0.3544846 0.047613308 -0.4039366 -0.8998422 0.3476501 0.5466247 0.31081983

hidden1.bias f4 [300]
00000000: 29bf 6fbe c50e 7fbd ae53 40be 0d76 eebc
00000010: 3773 a4bc 617e 9fbe 0063 8dbe 12e4 d03d
00000020: 500a 16bf cacf 3abe ff38 17be 0ced 3f3d
00000030: b7f7 29bd b0e8 92be d995 5fbe 9f82 aabd
00000040: c61c 4dbe b472 0bbe f107 85bd 772d 873d
00000050: a8cc 413e a3bd 05be fb74 afbe 7047 23be
00000060: 9097 9bbe 8d82 75be f28b 253d 2893 54be
00000070: df02 2cbe c584 9f3b a0c7 c1be 20f5 a8be
00000080: 1f46 32be 374d ccbe 2599 20be d0ed 30be
00000090: 3e20 dabc c357 e7bb 20a3 9abe d51e 87bd
000000a0: f555 29be 1143 51be 84e4 78bc 9c83 b1be
000000b0: 8429 efbd b741 883d 3694 55be 8d4e 39be
000000c0: df9e 27be e789 7cbe aa10 71be e4bb 8abe
000000d0: ce98 74be 2a4e 1cbe 77a0 5bbc 3314 a2be
000000e0: e7c5 59be 5d0a a3be 1a33 22be 687b b1bb
000000f0: 4f0e 2abe 1856 babd 46ad 8ebe 4498 823c
00000100: be8b e6bd 540f cdbe 1212 8f3b 9759 edbd
00000110: 2f26 1abe 1a64 b7bd 8a96 c4be 35d9 f4bd
00000120: 69cd 12be 694e 1dbe 6f19 7fbe 8d5b 20be
00000130: 1d37 ff3d e464 20be aaa6 0ebe 4436 01be
00000140: 04ca 96be 2a3b 87be 12b6 4f3e 2663 d5be
00000150: 6469 dabe 469e 73be 74ee 61be d463 eebe
00000160: 566f d1bd c797 1ebd c85f 3abe d9ab 153d
00000170: e8bc cdbe 067c 2ebe 68c7 913c 11fe 83bd
00000180: 9516 6cbd ed9f fdbc 2e96 c7be 84fe 28be
00000190: c16d d1bd 3800 fcbe f388 82be f47a 3bbe
000001a0: 58ef 42be 360d 06bd ac57 dabe 3b51 35be
000001b0: 3459 11be f99c 60bd 7436 a0bd 9da4 a9be
000001c0: 17a6 5abe 40df 59be 9397 f1bd c8db 5bbe
000001d0: 10fc 88be a1dd 82be 0edd bcbe ecb0 cfbe
000001e0: 5850 a9be 0496 94be f28d 36be 99cf 3bbe
000001f0: 70ad d8bd c68c 62be 2ba9 4bbe fc70 acbe
00000200: d125 dbbe 9053 b2bd ea30 84be 5871 bfbe
00000210: 29ea cebd a90e 36be 6839 44be 3363 e83d
00000220: 7230 57be 4148 39be 0f61 c2bd ab97 36be
00000230: 0454 07bf 292f 31be ee65 82be b444 a3be
00000240: 75d2 c5be 2285 90bd 3f58 dfbd 58c6 0cbe
00000250: dc7a aabd 87b3 92bd d77b 00bf 67dc ebbd
00000260: 2ca2 32be bf86 483c 0dcb b53c 96e2 afbe
00000270: f455 9b3c e8ac cabe 76a9 5bbe 2520 04be
00000280: 8d33 93be e20e 8bbe ec98 c7bd edeb 98be
00000290: 7f3e 8bbe f187 b5be 1e13 18be 51a1 febe
000002a0: 1804 02be 8d6f 39be bb95 05be afff 35be
000002b0: 14fb f1bd 90ab 80be 86b5 bdbd edde 2fbe
000002c0: 6c5d ef3d 07d6 3dbd 1e3d e0bc 7d90 a5be
000002d0: d10e fbbe cc80 ecbe 916d 153e ca23 5ebd
000002e0: 29f1 be3b 968b 4cbe 9bba 51be b6c6 143e
000002f0: 15ef 2cbd 6569 13be 9473 98bd 2dcd 92be
00000300: 0f7e 82be bfed fc3d f73d 5cbe 70b1 0fbe
00000310: b26f 44be b2a4 87be 578d 2fbd e0d8 90be
00000320: 86e9 d4be f43c 54be 3ade 21be 5e72 23be
00000330: 8864 a5bd cc88 6ebe 6e08 f7bd c635 5cbe
00000340: ef4c eebe 721b 84be c7d1 4dbe c853 81bb
00000350: 3009 d73b 1055 a0be 44f9 15bd 8a6e 1cbe
00000360: 7a03 44be 3204 95be f7e1 fbbe b907 cabd
00000370: 2f68 42be be69 2abe 0aca 9fbe a761 9bbd
00000380: d91b 38be e578 f5bd 1d9c 043e 5df5 11be
00000390: 7f1a 8fbe 8ae8 63be cd59 9a3c 3b2a 8fbe
000003a0: 4503 2bbe de3d 2fbe d4a8 14be c141 94be
000003b0: a925 843d 37f8 52be d4e8 c8be dd6b c53c
000003c0: dd5a a9bd e78b 9cbe 6eff a9be 1ef4 17bc
000003d0: 9cd0 9dbe cf4f cebe 0269 4bbe 395f 60bd
000003e0: e621 0bbe 95c2 15be d8b1 b8be 54e3 1cbe
000003f0: 6d99 65be 92ba a2be cebd b0be ede7 63be
-0.23412766 -0.062269945 -0.18781921 -0.029109025 -0.02007447 -0.31151107 -0.27614594 0.10199751
-0.58609486 -0.18243328 -0.14767836 0.046856925 -0.041496005 -0.2869315 -0.21834506 -0.08325695
-0.20030507 -0.13617975 -0.06495655 0.066004686 0.18925726 -0.13060622 -0.34268937 -0.1594522
-0.3038907 -0.23975582 0.040416665 -0.2075926 -0.1679797 0.0048681223 -0.37847614 -0.32999516
-0.17409562 -0.3990266 -0.1568342 -0.17278218 -0.026626702 -0.0070600226 -0.3020258 -0.065976776
-0.16536696 -0.2043574 -0.015191201 -0.34670722 -0.1167784 0.06653159 -0.20857319 -0.18096371
-0.16369198 -0.2466198 -0.23541513 -0.27096474 -0.23886415 -0.15264192 -0.013404957 -0.31656036
-0.212669 -0.31843844 -0.15839806 -0.0054163225 -0.16607021 -0.09098452 -0.27866572 0.015941747
-0.112571225 -0.40050757 0.004366168 -0.115893535 -0.15053628 -0.0895464 -0.38396102 -0.119554915
-0.1433617 -0.15361942 -0.24912046 -0.15659924 0.12461684 -0.15663487 -0.13930765 -0.12618357
-0.29451 -0.26412326 0.20284298 -0.41677207 -0.42658532 -0.23790845 -0.22063619 -0.46560538
-0.10226314 -0.038718965 -0.182006 0.03654084 -0.40183187 -0.17039499 0.01779528 -0.06444944
-0.057638723 -0.030960048 -0.38981766 -0.1650334 -0.10226012 -0.49218917 -0.2549511 -0.18308622
-0.19036615 -0.032727443 -0.42645013 -0.17706768 -0.14194185 -0.0548372 -0.07822886 -0.33133402
-0.21352421 -0.2127657 -0.117964886 -0.21470559 -0.26754808 -0.25559714 -0.368874 -0.40564668
-0.3306911 -0.29020703 -0.17827585 -0.18340911 -0.105799556 -0.22124013 -0.19888751 -0.3367995
-0.4280229 -0.087073445 -0.25818568 -0.37391162 -0.10103256 -0.1777903 -0.19162524 0.11347046
-0.21014574 -0.18093969 -0.09491169 -0.17831294 -0.5286257 -0.17303146 -0.2546839 -0.31888354
-0.38637128 -0.07056643 -0.109055035 -0.13747537 -0.08324215 -0.071631484 -0.50188965 -0.11516648
-0.17444676 0.012239157 0.022191549 -0.3435256 0.018961884 -0.39585042 -0.21451363 -0.12902887
-0.28750268 -0.27159792 -0.097459644 -0.29867497 -0.27196118 -0.35455278 -0.14851043 -0.4973245
-0.12696874 -0.1810896 -0.13045399 -0.17773317 -0.118154675 -0.25130892 -0.092631385 -0.17174883
0.11687741 -0.04634669 -0.027372893 -0.32336798 -0.49034742 -0.46192014 0.14592578 -0.05423335
0.0058270884 -0.19975123 -0.2048134 0.14528927 -0.042220194 -0.14395674 -0.0744392 -0.28672162
-0.254868 0.12350034 -0.21508013 -0.14032531 -0.19183233 -0.2649284 -0.0428594 -0.28290462
-0.41584414 -0.20726377 -0.15807429 -0.15961596 -0.080758154 -0.23294371 -0.12062155 -0.21504888
-0.4654307 -0.2580219 -0.20099555 -0.003946755 0.0065623745 -0.31314898 -0.03661467 -0.15276542
-0.19141951 -0.29104763 -0.49195835 -0.09864754 -0.18985055 -0.166419 -0.3120883 -0.07586985
-0.17979373 -0.119859494 0.12950177 -0.14253755 -0.27949902 -0.22256675 0.018841648 -0.27961907
-0.16700466 -0.17113444 -0.14517528 -0.28956416 0.064524956 -0.20602499 -0.39240134 0.024099285
-0.08269284 -0.30575487 -0.3320269 -0.009274511 -0.3082322 -0.40295264 -0.19864276 -0.05477831
-0.1358715 -0.14625008 -0.36073184 -0.15321094 -0.22421809 -0.31782967 -0.3451981 -0.22256441

hidden2.weight f4 [300, 300]
00000000: 4b17 663b f9f2 a1be 752c a33d 2b7e d4be
00000010: d3dc 05bf eb2b 183e 6401 9cbc cd67 85be
00000020: be96 bdbd b1cc d33d 82e3 81be e7bc 81be
00000030: 6488 47bd d5a9 2f3e 80ee 45be 2b7a 473e
00000040: bda9 a8bd 3e4d ba3e 17f3 4abe 3706 593e
00000050: febf 0ebe 1238 7fbc 397c 10bf 7203 8f3e
00000060: 2c14 413e 2607 ee3d 13c2 77ba 142a b23d
00000070: e759 94be 2665 c23d df62 c7bd 297d e03d
00000080: 6423 90bd ee5b c8be 3b28 9c3e 506a 45bf
00000090: 809b 273e b602 14be 7e7d 17be a1c9 a13c
000000a0: 8f31 fb3e c9f0 2abd 0a7d 19bf b5e9 6a3e
000000b0: 2e15 be3d fb7f 4fbe e679 7d3d 7eaf c43e
000000c0: 8b03 33be b394 973d d035 56be f228 78be
000000d0: 5b8a 073e 11ac 8b3d 2e48 853e 88ac 01be
000000e0: 245b 323e 6c43 f73d ef63 823e 38b0 4b3e
000000f0: 264a 383e 4728 8fbd bcde 31be f0ed 043e
00000100: fd9f 44be 10ab fabd aaf5 07be ddf8 80be
00000110: a270 bc3e e2f7 a5be 142c c6bd 946a 8cbe
00000120: bac3 eebd 288a 34be 40bf 033e d24b 9dbe
00000130: 0f40 683e a194 d6bd e925 f5bd 274d 823e
00000140: 8566 5dbe 0524 9ebd ef90 b13d 8720 653c
00000150: e799 573e 3418 b5be 8fea a7bd e15d 453e
00000160: 0360 003d f233 bc3c 27bd 23bc f755 e1be
00000170: 828b 61bd 6b57 9d3e 22ed a43e f323 49bf
00000180: dee3 aabc a001 cebe d59c 8fbd 114d a13d
00000190: 4767 f93d e101 d4bc f44f fb3d fedd 13be
000001a0: 48a7 cebd 0136 05bf 81c6 6a3e 601b 4dbd
000001b0: 6b6f 973d 16c9 923e 00bc 7e3e 1de7 01bd
000001c0: 0f43 543e 3b74 a8be 2403 3c3d ddd1 f6bd
000001d0: 1742 4dbf 9aee 54be 1048 a9bd 7165 64bf
000001e0: 5e18 993e f441 83bc dd31 f9bd fdca eebe
000001f0: 4ce6 1fbe 2c0d 46bf 9d5a 2c3e 4988 be3e
00000200: e553 98bc 4d6d 1ebe 04a2 d93d b193 103e
00000210: 2a9e c43e 3651 293e c0b1 cebe 3d6f 233e
00000220: 298d a63d 682b 8d3d 0293 90bd 5440 bd3d
00000230: e2df 223e 9b4e 01be 0eb0 103e 1b84 113e
00000240: e483 723e 8f55 973e ecab d4bd 3e29 11be
00000250: 24b4 4fbd e991 813e 61be 0e3e a089 8c3e
00000260: 54de 3b3e e129 ad3d 360c efbd 25c0 143d
00000270: 9509 34bc 95b0 87bd def2 623e 354b 053d
00000280: 07df 0dbf eef8 ef3e 72ff 23bf e81d 6dbe
00000290: cca5 443d f790 49be 1bfd ecbd aa06 9d3d
000002a0: 7249 e13e 70bf 1e3e e8f7 d23e 6be1 bf3e
000002b0: 2d8e 073e 56a5 b0be 6da2 b4bd 71d0 f4be
000002c0: 0b28 98bc e7fb 9cbe dc7c f4be 85ac 65be
000002d0: aafd c33e 7cd7 203c 78cc 53bc f2d7 28bd
000002e0: b8ec 56be 0908 3abc e2ec d0bd fb0e f23d
000002f0: d835 99be 6241 a23e 6b88 543d fce8 8cbd
00000300: 7d83 dfbc a08d 173e 6ddc f2be 8af7 53bd
00000310: 2f6e 0dbf acb1 8bbd 6741 fabd 36ad 47be
00000320: cf43 433e 8c6b 753d 405b 533e 7d84 fbbd
00000330: bb1d 0ebe 3c69 a73d 6f20 76be cefd 03be
00000340: 091e e23d 7ffa a7be 1b73 61be 5d5c a23e
00000350: 9db9 88be 88a0 ec3e c016 cb3d da2e 383e
00000360: ee59 19bd b241 953e 05c3 16bf c173 d0be
00000370: 057c 253e 73c5 1dbd 28ef d8bd a797 803d
00000380: a7b3 20be dca2 0f3e a27d 50bd 70c7 0a3c
00000390: 9ad4 133e 7040 403d c7b2 ab3d 7b47 38be
000003a0: 39ad c13d 3e8f 5b3e f00a f03e 0f94 a1bc
000003b0: 6ceb 55bd 8b8d 34be 8d2b 28be 5af8 04bd
000003c0: 3b81 50bd 1bcb 14bd aca4 48be 1741 943a
000003d0: 9e6f 1abd 2fbf b23e f32a 0abe 3bc2 66be
000003e0: ae32 513c 1c73 32bd 74d5 d53d 8d7f fcbc
000003f0: 491d aebe 639b 3d3e 29d8 1b3e 15a2 393e
0.0035109099 -0.31630686 0.07967464 -0.4150251 -0.52290076 0.14860503 -0.019043632 -0.26055756
-0.092572674 0.10341776 -0.25368887 -0.25339434 -0.048714057 0.1715463 -0.19329262 0.19480197
-0.082355 0.36387056 -0.19819294 0.21193777 -0.13940427 -0.015577333 -0.5643955 0.27932316
0.18855351 0.11622457 -0.00094512216 0.08699432 -0.2897484 0.09491949 -0.09735655 0.109613724
-0.07038 -0.39132637 0.30499443 -0.77115345 0.16367912 -0.14454159 -0.14793965 0.019749464
0.49061248 -0.041733537 -0.5995642 0.22940715 0.092813835 -0.20263664 0.06188383 0.3841514
-0.1748182 0.07401409 -0.20918965 -0.2423437 0.13236372 0.068199284 0.2603163 -0.12663472
0.1741758 0.120734066 0.25466868 0.19891441 0.17997035 -0.06990104 -0.17370123 0.12981391
-0.19201656 -0.12239659 -0.13277307 -0.25189868 0.36804682 -0.32415682 -0.09676376 -0.27425063
-0.11658426 -0.17630827 0.12865925 -0.3072191 0.22680686 -0.104775675 -0.119701214 0.25449488
-0.2162114 -0.07721714 0.08670222 0.013984806 0.21054803 -0.35370028 -0.081990354 0.19274093
0.031341564 0.022973988 -0.009993828 -0.44010898 -0.055064686 0.30730757 0.32212168 -0.7857048
-0.020860609 -0.40235615 -0.07012335 0.078760274 0.12177902 -0.025879802 0.12271109 -0.14440152
-0.100905 -0.5203553 0.22927286 -0.050074935 0.07394298 0.2866904 0.24876404 -0.031714547
0.20728706 -0.32901177 0.045901433 -0.12051747 -0.8017897 -0.20794144 -0.08265698 -0.8921729
0.29901403 -0.01602266 -0.12167714 -0.46639243 -0.15615195 -0.7736385 0.16831441 0.37213352
-0.018594692 -0.15471382 0.10626605 0.1411884 0.3840192 0.16534886 -0.40369987 0.15960403
0.08132393 0.06893045 -0.070592895 0.09240785 0.15905717 -0.12627642 0.1412966 0.1421055
0.23683125 0.29557464 -0.10384354 -0.14175889 -0.050708905 0.25306633 0.13939811 0.2744875
0.1834653 0.084552534 -0.11672251 0.036316056 -0.010988613 -0.06625477 0.22162959 0.032542426
-0.5541844 0.46869606 -0.64061654 -0.2315594 0.04800968 -0.19684206 -0.115717135 0.07667287
0.44001347 0.15502715 0.41204762 0.37476668 0.1323783 -0.3450114 -0.08820043 -0.47815278
-0.018573781 -0.30660936 -0.4775151 -0.22429092 0.38279468 0.0098170005 -0.012927167 -0.041221566
-0.20988739 -0.011354455 -0.10201432 0.118192635 -0.29923892 0.31690508 0.05188791 -0.06880376
-0.027284378 0.1480012 -0.47433797 -0.051749744 -0.5524625 -0.068209976 -0.12219506 -0.19499668
0.19068836 0.059917018 0.20640278 -0.122811295 -0.13878529 0.08174369 -0.2403581 -0.12889788
0.11040885 -0.328083 -0.22016566 0.31711093 -0.26704112 0.46216226 0.099164486 0.17986622
-0.03743928 0.29151684 -0.58891326 -0.40713313 0.16160591 -0.03851838 -0.105924904 0.062789254
-0.15693532 0.1402697 -0.050901063 0.008470401 0.1443657 0.046936452 0.083837084 -0.17996018
0.09456868 0.21441361 0.46883345 -0.01972392 -0.05222647 -0.1763212 -0.16422863 -0.03246341
-0.050904494 -0.03632651 -0.19594067 0.0011310902 -0.037704103 0.34911487 -0.13492946 -0.2253503
0.012768431 -0.043566808 0.104411036 -0.03082254 -0.34006718 0.18516307 0.15219177 0.18128236

hidden2.bias f4 [300]
00000000: 5d1a 9abe 1aad 913e 1eaf 703d 57fe 0dbd
00000010: bd46 b33e a9be 293e d383 d4bd 3bd6 fcbd
00000020: 40cd 823d 4f43 6dbd 353e fdbd aada f1bd
00000030: 1930 c73c 170c 043c 9c07 07be 97b9 153c
00000040: e055 29bd e3b9 56be ad64 4d3e d9bd d43d
00000050: 8f84 253e f2ff 8e3d 4164 613c 5092 293d
00000060: 8478 82bd 4bcb 353e 4da9 db3d 619f 0fbe
00000070: 93d8 73bc 94d8 a5bc 8acd 6b3e dd2b 03be
00000080: 8af7 cc3e 354c d8bc bc51 c8bd 33c8 3f3e
00000090: f962 4c3d 75b1 7f3e 71f2 923e 4b11 ad3e
000000a0: 4649 60be 2af1 ecbd 1269 99bd 52c0 6e3e
000000b0: 71a8 f83c ce1e 613d 28c6 cdbd 0dcd 373d
000000c0: 302b 8dbc a872 3b3e 21f2 1cbd 8894 a4be
000000d0: 2553 1d3e f605 47bd e73a 9ebd 6abd 18be
000000e0: 9f94 2d3d c7f1 8c3e fed6 48be 080f 6d3e
000000f0: 1a93 a13e 929c 273e 6c9e eabd fede c33c
00000100: 968b d83c 4b65 40be 84df 18be d260 6f3e
00000110: 837c 893d 0614 ba3b d959 3e3d 6a82 37bd
00000120: 49ec 25be d20c 68bd d8cd 7c3c 88fe 4f3d
00000130: 3a5b 1cbe fb82 94bd 9eaa bb3d b05e 9c3e
00000140: 0ce4 32be 8a56 8b3c 37e1 5b3e 16f6 9c3d
00000150: fa12 38bd 60b8 4b3d c381 643c 3925 df3d
00000160: 3b3d fbbd 04f8 743d f95b 163e f145 713e
00000170: 4b14 0d3e 7099 cd3c da20 84be 7686 c63e
00000180: b81e 8ebd 6389 5b3d 2641 ea3c 7e23 bd3c
00000190: 9d6c 8bbe c02d 723e d5a3 493e 9c0c 683e
000001a0: 0654 863e 2691 783e 128c 873d 3ea4 8ebd
000001b0: c02a c53c 389a 283e 1318 2a3e 13dd d1bd
000001c0: ba29 c83e 5250 f83d 2b45 26bb 6333 9e3d
000001d0: 6666 423d ba0e b03d c53e 10be 0ba1 45be
000001e0: d3d4 f53d 42ad 51be b87e 513e a920 5d3e
000001f0: fa54 a33e 71f8 c03d 0687 183d 22f7 ed3d
00000200: d324 6cbe 6a60 cb3d 78c4 15be 5672 3f3d
00000210: 19b4 273e 849b 0bbd 757c 68bb 030f ee3d
00000220: c6a2 2b3e eda1 aa3e 9d1e 17be ca06 393e
00000230: bef2 993b 583a 4dbe 45e0 d03d 7e3e d5bd
00000240: eba4 e03d d2bd 563e 5518 983e 007d 613e
00000250: 06bc a7bd 852e 16be 61ab cb3d 23fc 813d
00000260: f255 943e 7db7 193e 298e 86be 5f6c 793e
00000270: e15c 393e bf40 26bd 6915 1c3d 9ecd ea3d
00000280: 3143 b0bd 6b9c bbbb b57a e73d 0e5d fe3d
00000290: c42b fabd 8a47 57bd 17ff d03d 11d4 793b
000002a0: 98e2 103e faae b63e 7f6f 9d3e 4856 98bd
000002b0: 50c8 963d 6a7f 243d 3063 f43d dd32 0c3d
000002c0: 0724 223d f663 f73d 5c48 143e f9c6 c3bc
000002d0: c342 92bd f14d 12bd 3bd7 33be 1f3c 3fbc
000002e0: 13ea c2be e75f 37be 9c01 b53d 9bff 413e
000002f0: 014a 0b3e 6b6a b7bc db32 38be e43d b73d
00000300: 9643 0c3e c997 ae3b 34bb 373d aee0 0e3e
00000310: 5421 b43d 248b 89bd 4b12 a43e 5ff5 c63e
00000320: 2cf7 093e 6e46 8abe 26c6 bebd ca95 2e3d
00000330: 8eaf a8bd 9aaa 3b3e 46b3 873e 21a8 f83d
00000340: 60b9 94be 10ce 273c 021e 0abe 4caa a13e
00000350: d84d 883e 9032 693e 8eff 703e adae adbd
00000360: a651 0f3e cbe3 a43c 1e7d 313c 997e 933e
00000370: 4ae4 9e3e 142e edbc 7174 cc3b 1ca1 4c3e
00000380: 0f7b 99bd e0ae ae3f 01fd 8f3c 92b9 083e
00000390: 8257 b43d a52b 263e 2959 ab3e e9d5 8dbc
000003a0: 0bae ce3d 91c9 0a3e 5cf5 4d3e 4c2a b5bd
000003b0: f82d 05bd dd2a a3be 58e7 713d a983 783d
000003c0: eef9 3c3e 4843 893d fe06 283e cf89 443e
000003d0: 20b8 343d 17ea 34be 0f77 713e f2f0 f7bd
000003e0: c281 17be dd2d a03e 7a25 cebc 93f8 883e
000003f0: 09e8 0abb 1a66 843e f593 853c 61ba d13d
-0.3009824 0.2845238 0.058760755 -0.034666386 0.35014907 0.16576637 -0.10376706 -0.12345549
0.063868046 -0.05792552 -0.12365381 -0.11809285 0.024314927 0.008059523 -0.13186496 0.009138486
-0.041341662 -0.20969348 0.20057936 0.10387773 0.16163848 0.069824114 0.013756813 0.0413993
-0.06370643 0.17753331 0.10725651 -0.14025642 -0.014883178 -0.020244874 0.23027626 -0.12809701
0.40032607 -0.026403526 -0.097812146 0.18728714 0.049899075 0.24970038 0.28700593 0.33802256
-0.21902952 -0.11569436 -0.07490744 0.23315552 0.030353757 0.05496102 -0.10047561 0.044873286
-0.017232507 0.18305457 -0.03831685 -0.3214457 0.15363748 -0.04858967 -0.077260785 -0.14916006
0.042378064 0.2752821 -0.19613263 0.23150265 0.31557542 0.1636832 -0.11455998 0.023910042
0.026433747 -0.1878864 -0.14929014 0.23376778 0.06713202 0.0056786565 0.046472404 -0.044802107
-0.16203417 -0.05665285 0.015429936 0.05077985 -0.15269175 -0.07251545 0.09163402 0.3054099
-0.17469805 0.017009038 0.21472631 0.07664125 -0.044939972 0.04973638 0.013946953 0.108957715
-0.12267538 0.05980684 0.14683522 0.23561837 0.13777272 0.025097579 -0.25806314 0.3877446
-0.06939453 0.05359782 0.028595518 0.023088213 -0.27231303 0.23650265 0.19691403 0.2266106
0.2623598 0.2427412 0.06618513 -0.069649205 0.024068236 0.1646508 0.16610746 -0.10247245
0.39094335 0.12124695 -0.0025370817 0.07724645 0.047460936 0.08596559 -0.14086445 -0.19299714
0.120034836 -0.20476249 0.20458496 0.2159449 0.3190077 0.094223864 0.037238143 0.116194025
-0.23060922 0.09930499 -0.14625728 0.0467399 0.16377296 -0.034083858 -0.0035474573 0.11623957
0.16761312 0.33326665 -0.14757772 0.18068996 0.0046981266 -0.20041788 0.10199026 -0.1041231
0.109689556 0.20970848 0.29706064 0.2202034 -0.081901595 -0.14666183 0.09944797 0.063469194
0.2897182 0.15011401 -0.26280335 0.24357747 0.18101837 -0.04058909 0.038106356 0.114649996
-0.08606566 -0.0057254336 0.113027014 0.124200925 -0.12215379 -0.05255846 0.102049045 0.0038120786
0.14148939 0.35680372 0.30749127 -0.07438332 0.07362425 0.040160574 0.11932981 0.034228195
0.03958514 0.12079613 0.14480728 -0.023898588 -0.0714164 -0.035718862 -0.17562573 -0.011672049
-0.3806921 -0.17907678 0.088381976 0.18945162 0.13602449 -0.022389611 -0.1798815 0.089473516
0.13697657 0.005328153 0.044856265 0.13952896 0.08795419 -0.06715992 0.32045206 0.38859078
0.13473195 -0.2700686 -0.093151376 0.04262332 -0.082366094 0.18326798 0.26503962 0.12141443
-0.2904768 0.010242 -0.1348801 0.3157524 0.2662189 0.22773194 0.23534986 -0.084805824
0.1399599 0.020128151 0.010833053 0.28807524 0.31033546 -0.028952636 0.006239467 0.19983333
-0.07494175 1.3647118 0.017576696 0.1335204 0.08805753 0.16227587 0.3346646 -0.017313914
0.1009179 0.13553454 0.20113128 -0.08845958 -0.032514542 -0.3186864 0.059058517 0.060672436
0.18454716 0.06702286 0.16408917 0.19193195 0.044120908 -0.17667423 0.23580573 -0.121065035
-0.14795592 0.3128499 -0.025164355 0.26752147 -0.0021195433 0.25859147 0.016305903 0.10240627

mu.weight f4 [6, 300]
00000000: 2f03 05be e226 0d3e 6f5b efbd 4c5b b6be
00000010: 13a1 39bd 70e6 45bd 36ed 8c3d cded 2d3e
00000020: 5202 193e bf51 293e cb0e bb3c 1f4f 30be
00000030: 3e19 b6be 99da d63e c0a7 863d c8fb 57be
00000040: 5273 08bd f169 dc3e 2013 1bbe 516e 61bf
00000050: 87f9 4e3e 18aa 94be a853 b93d ec6d 803e
00000060: 52e6 dcbd a46e 41be f4db 903e 0021 1e3e
00000070: 9767 f3bd 5d82 58bd f78a eebe 583c d6be
00000080: c627 5f3c 9e51 0e3e ce32 013f c817 3ebe
00000090: 4a74 3abf 7574 843c 95b9 8c3d bcac bbbe
000000a0: 09f0 9fbd f247 503e 5cfd 59bd 22b8 9dbe
000000b0: d955 cb3b e096 6abe 0d83 7dbd d7b8 86bd
000000c0: 6919 bdbe 2ae8 4f3e 2538 333d ba53 aa3e
000000d0: 5ee6 79bd 0b82 eebd 7e46 723d 119c 05be
000000e0: 981a 3e3e 406b 07bd 054d 8a3c 0070 e4be
000000f0: 20a7 93bc e828 043e 4da4 8c3d 4746 59be
00000100: baa7 0dbe 7249 e33d bb53 8fbc 63f2 1bbe
00000110: 3d93 21be b4df a13e 0da2 093e 7e65 e53e
00000120: 48cf 4bbe 96c2 b43e 33f4 513e d98f bebd
00000130: f9b8 713e ac6b ccbd 5664 a53d ab3e 7e3e
00000140: 05b4 43be 58b8 bf3d 3cb6 34bf 9d46 3a3d
00000150: a747 143d 28dc 51be 95fb 89be 3046 893e
00000160: e8e9 d63e 11a1 e4be 16c6 813e 4791 b3bd
00000170: 3224 53be 22a6 693e d12a 8d3d a3e8 e0be
00000180: a16f 29be 4e93 c7bd 2c6e 443d d928 ca3c
00000190: ed33 f63d 37d1 1b3e 73c3 4ebe aaf0 e23c
000001a0: 4bbc 233d 8b32 f4bd af8a 6bbe 58aa b13e
000001b0: 8f5b ee3e cecf 713e c818 e63e 13a1 92bb
000001c0: f2ee 65bd a8dd c33d 26dc cfbd 183c 4ebd
000001d0: 14bb 913d ae45 a53d 2b58 703e 3b75 abbe
000001e0: 494f c73e ddaf 9b3e d514 85be 40b0 803e
000001f0: 38f3 f7be 36c8 70bc fe8d 91bd f522 32be
00000200: ba0f 0f3e 7655 593e 1cfc 13be 0c69 ca3e
00000210: 3a29 9cbe ec30 fabd f10f 273e 910b 743e
00000220: 3ee4 1bbe a777 403e 71fc 043d 5b9a 833e
00000230: 826e 54be cd6e 283d 58b3 073e 5f65 033d
00000240: 6a47 913e 4913 6f3e 012f 8abe 9bf9 74be
00000250: 0441 bb3e 5bcb 21be 8370 55bc 1f13 a93d
00000260: a95b 22be c156 483d 8069 2f3e a10b 65be
00000270: f2c5 6fbe d1ea aabc 4342 f1bd 77ff 45be
00000280: ff05 373d 3696 c63e 7d06 f93d d9d4 8a3e
00000290: e903 9d3e 1813 6a3e 2ca8 0cbf c264 a43d
000002a0: 49f0 f6bd 85ff ccbd 9bf6 433c 5e91 673e
000002b0: c524 5c3e de50 0fbc 2c75 9f3d 5a74 f4bd
000002c0: fcfa 123f 7e43 b43e 2d65 5b3d 8a6d d93c
000002d0: 790b a9be d004 3e3d 68af ce3c 41aa 073e
000002e0: dee0 04bd 362c b63e 2373 053d 48f2 54bd
000002f0: b8a0 bcbb 9ea6 243c 764d 6dbd d164 133e
00000300: d47a 4f3e 3498 0bbe b5eb 613e dfb3 293e
00000310: 62af b53d 2ad4 9fbd 627e a8be a594 28be
00000320: 6a62 b63d 5dbb 863e 2776 143d d19b 963d
00000330: 707e 6f3e 01bf 62bd b024 97be 63d9 473d
00000340: 18c8 89be 3454 033e 4242 0cbe a42e e13e
00000350: d7e4 303e 78fa d7be a55b 263e 78c5 abbd
00000360: 7e47 48be d8dd 333e a7ce 6cbe 7aad 7cbe
00000370: 8ec1 ca3b 01f9 b8bd f3a1 37be 8ee8 693d
00000380: 2a75 5abe d66a 6ebd c52d fc3c bc72 febd
00000390: 1c27 20bf 4551 5a3e 2b63 d6bd 4de9 f4bd
000003a0: b217 113d fe58 533e 56b7 b53d 3f23 743e
000003b0: 4e15 74be 8062 ab3c 3af9 8b3e 7f67 9a3d
000003c0: 1c33 5b3e 7859 983e bcd5 8dbd 9afa fabd
000003d0: b869 d93d 219b 0dbe 5d08 193e fbda 9dbe
000003e0: e886 383e 31f1 13bd e5c7 0bbb 6a4d b33c
000003f0: f17a 093c 6a9a 1bbe 9a9d 073d 7b7f 2ebe
-0.12989496 0.13784364 -0.116873614 -0.3561653 -0.045319628 -0.048315465 0.06881182 0.16985245
0.14942291 0.1653509 0.022834202 -0.17217682 -0.35566133 0.41963652 0.065749645 -0.2109214
-0.033313103 0.43049577 -0.15144014 -0.88058954 0.20212375 -0.2903602 0.09049159 0.25083864
-0.107861176 -0.18889862 0.2829281 0.15442276 -0.118849926 -0.0528587 -0.46590397 -0.41842914
0.013620323 0.13898322 0.50468147 -0.1856376 -0.72833693 0.016168812 0.068713345 -0.36655223
-0.07809455 0.20339945 -0.053220138 -0.30804545 0.006205302 -0.22909117 -0.061892558 -0.06578224
-0.3693345 0.20303407 0.043754715 0.33267003 -0.06101071 -0.116458975 0.059149258 -0.13047816
0.18564832 -0.033061266 0.016882429 -0.446167 -0.018024027 0.1290623 0.068672754 -0.21218215
-0.13833514 0.11097993 -0.01749598 -0.15229182 -0.15778823 0.31615984 0.13440724 0.44803995
-0.1990329 0.35304707 0.20503311 -0.093047805 0.23605718 -0.09981474 0.08075778 0.24828593
-0.19111641 0.09361333 -0.7059057 0.0454775 0.036201145 -0.20494139 -0.26949754 0.2681136
0.4197533 -0.44654134 0.2534644 -0.08767944 -0.20619276 0.22817281 0.06892932 -0.43927488
-0.1654649 -0.09744893 0.04795663 0.02467768 0.12021623 0.15216528 -0.20191745 0.027702648
0.039974492 -0.11923703 -0.23002122 0.34700274 0.4655423 0.23614427 0.44940782 -0.004474768
-0.05613608 0.09563762 -0.10149412 -0.05035028 0.071157604 0.08069931 0.23471133 -0.33487877
0.38927677 0.3040761 -0.25992456 0.25134468 -0.4842775 -0.0146961715 -0.07107161 -0.17396148
0.13970843 0.21224007 -0.14451641 0.3953327 -0.30500203 -0.12216362 0.16314675 0.23832537
-0.15223786 0.18795644 0.03246731 0.257037 -0.2074528 0.041121293 0.13252008 0.032079097
0.28374797 0.233472 -0.26988986 -0.23923342 0.3657304 -0.1580023 -0.013027313 0.082556
-0.15855278 0.04891086 0.17130089 -0.22367717 -0.23415354 -0.020863922 -0.117802165 -0.19335733
0.044683453 0.38786477 0.12159441 0.27115515 0.30667046 0.22858846 -0.5494411 0.080270305
-0.120575495 -0.10009674 0.011960651 0.22614047 0.21498401 -0.008747308 0.07786021 -0.11936255
0.5741422 0.35207742 0.053563286 0.02654149 -0.33016565 0.04639131 0.025230125 0.1324854
-0.032441013 0.35580605 0.032580506 -0.05198887 -0.005756464 0.01004949 -0.0579352 0.14393927
0.20261699 -0.1363228 0.22062571 0.16572522 0.08871342 -0.07804139 -0.32908922 -0.16462953
0.0890549 0.26314822 0.03624549 0.07353938 0.23388076 -0.055357937 -0.29520178 0.0487913
-0.26910472 0.1282509 -0.1369715 0.43980896 0.17274795 -0.4218328 0.16245897 -0.083872736
-0.19558522 0.17565095 -0.23125707 -0.24675551 0.0061876243 -0.09031869 -0.17932872 0.057106547
-0.21333757 -0.058207355 0.030783543 -0.124242276 -0.62559676 0.21320064 -0.104681335 -0.11958561
0.03542299 0.20639417 0.08872859 0.2384157 -0.23836252 0.020920992 0.27338582 0.075392716
0.21406215 0.2975576 -0.06925532 -0.1225483 0.106158674 -0.13828708 0.14944597 -0.3083113
0.18020213 -0.03611869 -0.0021328863 0.0218875 0.008391128 -0.15195623 0.033109285 -0.17040817

mu.bias f4 [6]
00000000: 27dd 793d 8fd0 7ebd 76f7 933d 58e3 073f
00000010: 38f3 563e 3611 3d3e
0.061001923 -0.062210616 0.07224934 0.53081274 0.20991218 0.18463597

log_std.weight f4 [6, 300]
00000000: 6efe 8fbd 818a 8a3d 932d 25bd 0a62 acbd
00000010: 6bec 17bd 50f8 41bd baba 123d 8ca6 8e3d
00000020: 7b7b 383d 22dd a03d 22ff 79bc 5d75 9abd
00000030: 8d8d 25be 1452 153e 0d24 413d 362a 75bd
00000040: 67d8 f13c a571 3d3e d885 d2bc bd1d 2dbe
00000050: f539 643d c188 af3c 147a 5c3d 2d55 b33d
00000060: 7940 84bd 2c3f 55bd 95ca af3d df6e dd3d
00000070: 6fa1 5c3c 9b49 17bd 4a3a e0bd 2b5d d6bd
00000080: 7d3c cb3b 54ae 2b3d 85d6 1c3e 0a38 bfbd
00000090: c4bd 2a3e 7d8c 1d3c 9be4 b03c 451a 0fbe
000000a0: f1d2 8cbc 63cb c83d 1f32 d73c d12a 92bd
000000b0: 95a3 71bd 6805 84bd e7d7 c3bc 9520 18bd
000000c0: a2d0 70bd 84d6 083e 058e 843c 2fae e53d
000000d0: 3304 8b3c 9be0 793b d03d 033d cd2c e2bc
000000e0: c14a eabc 26aa c6bc a703 403c 39d2 12bd
000000f0: 35ee a23c 4fc9 ebb9 402d 4b3c ab3f 69bb
00000100: 1de3 87bd 6f6a 423d fe94 4f3a 7a6c 83bd
00000110: fba3 26bd 2e86 fd3d 3911 623d 923b 2b3e
00000120: 80c5 9cbd 11f3 e43d 7d9a d63d b8ab 9bbe
00000130: 6f9e a93d ee85 18bd cfdd 1d3d 42fc c73d
00000140: 2a47 6dbd c6f6 203c 7e97 3bbd 9a23 9e3c
00000150: 0ce1 d53d f3ba 3fbd 969f cebc 8518 2a3e
00000160: d141 0e3e 2789 b7bc f437 063e 5210 973d
00000170: 38bd 12bd 6072 ff3c be02 023c 256b 39be
00000180: 8d42 5cbd 82a2 97bc 9a68 d53c a116 d53c
00000190: ec9e ab3c f1de 0e3d 175b f1bb 2036 efbd
000001a0: 3a2f bdbc afed 3dbd 4a9b 5abd 4b85 ea3d
000001b0: 12c8 5c3e 03d3 ab3d 9d1c 193e 7a73 3fba
000001c0: e534 3dbd 18c3 9d3d 79ba b0bd 108c 63bd
000001d0: 8a12 21bc 107e 023d 29ee be3d 7e53 02be
000001e0: a5a0 903d 2669 e73d b931 c7bc 3080 e63d
000001f0: 494f 40bd 8daa 00bd e073 acbc 2e1f 343b
00000200: 0dbb ac3c 4c90 aa3d d7d6 1abd 0b97 143e
00000210: c740 87bb ff46 80bd 53a8 6c3d 4dfd 8f3d
00000220: a437 71bd 28a6 8f3d b670 113d 6718 063e
00000230: 5f06 92bd 481c b93c 608c 973d 2182 033c
00000240: 9521 de3d 7cb6 e93d 4d56 13be 22a6 cdbd
00000250: d030 003e d9c9 94bd e515 ee3c f830 523d
00000260: ee4c e8bb e202 5e3d 5ca1 4d3d aea5 1abd
00000270: 75bb 4abd 173f b8ba cd47 03bd 3249 3fbd
00000280: d0bf 093d 3ef9 0d3e 791c a83c 2b0b 093e
00000290: 6c88 db3d ac65 b73d 3a30 a0bd 2215 6c3d
000002a0: cb2e 8ebd ca0d 5dbd 4707 973d bb8a 4e3d
000002b0: 79cd 6d3b 18fc 083d 6ea3 393c 81e3 82bb
000002c0: 8916 933e c313 dd3d 8c44 e7bc b17c 273d
000002d0: 2ef6 c8bd fcf2 013d 9414 92bc b8f4 963d
000002e0: ad88 d9bb 4f92 0a3e 006c a8bd e654 edbc
000002f0: 1625 90bb f637 a33c f9c6 39bd c51e 483d
00000300: 91b4 1b3b 401d b1bd 6ebd a73d 1096 883d
00000310: bbf1 e73c be79 39bd 3807 d8bd 10ff 8fbd
00000320: 049e 203c 8fff ae3d 821b 4bbd 7f70 103d
00000330: d541 a53d 1992 b33c 915b 8fbd 8e6f 923d
00000340: 7c91 51bd 84a4 d3bc f992 febd cd21 8b3d
00000350: 29e3 3b3d 0490 07be 4c55 173e 87f7 37bb
00000360: 4e2f 80bd c35f 0f3d fdb6 b33c 3146 67be
00000370: 0bb4 8cbd 462d a0bc 3bb5 a6bd e721 4e3d
00000380: 8924 3dbd 9ab6 cabd da04 833d 0669 c8bc
00000390: 0fac 19be 52dd 923d 017b 33bd 392c f33b
000003a0: a2af 22bd 0af8 693d 8011 803d 62be 983d
000003b0: 3ed5 4cbd 9140 fc3c 4751 d53d 2bd4 b63c
000003c0: 17d3 5cbe 0db2 d53d f854 603c 2901 82bc
000003d0: b7b4 65bd c15c d137 fd5e 4b3d 7704 11be
000003e0: dedb 7e3d e7ae b9bb 8d8a ea3d 0652 0e3d
000003f0: 5a79 05bd 9601 09bd 744a ccbb d46b fbbc
-0.070309505 0.06764699 -0.040326666 -0.08417137 -0.0370907 -0.04735595 0.035822608 0.0696536
0.045039635 0.07854678 -0.015258582 -0.075419165 -0.16167279 0.14582092 0.04715352 -0.05985471
0.029522134 0.18500383 -0.025698587 -0.16905876 0.055719335 0.021427514 0.05382736 0.0875648
-0.0645761 -0.0520622 0.08583561 0.108121626 0.013466223 -0.03693543 -0.10948618 -0.10466989
0.006202279 0.0419143 0.15316208 -0.093368605 0.16673952 0.009616015 0.021593383 -0.13974865
-0.017190428 0.09804418 0.026269017 -0.07137073 -0.058993895 -0.06446344 -0.023906661 -0.037140448
-0.058792718 0.13363081 0.016181001 0.112148635 0.016969776 0.003812826 0.03204137 -0.027609253
-0.028600099 -0.024251055 0.011719621 -0.035845015 0.019888977 -0.0004497268 0.012400925 -0.0035590928
-0.06635115 0.047464784 0.0007918625 -0.06417175 -0.040683728 0.12379108 0.055192206 0.16721943
-0.07654858 0.11179174 0.10478685 -0.30404449 0.08282172 -0.0372371 0.03854161 0.09764911
-0.057929195 0.00982446 -0.04579877 0.019304086 0.10443315 -0.046809148 -0.02522258 0.16610916
0.13892294 -0.022404267 0.13107282 0.0737616 -0.035824984 0.031182468 0.007935224 -0.18107279
-0.053774405 -0.018510107 0.026050854 0.026011767 0.020949803 0.034880582 -0.007365595 -0.116802454
-0.023093808 -0.04636925 -0.05337075 0.11451205 0.21560696 0.08389857 0.14952321 -0.0007303279
-0.046193022 0.07703227 -0.08629317 -0.055553496 -0.00983108 0.031858504 0.09322769 -0.12727162
0.070618905 0.11299352 -0.024315702 0.112549186 -0.046950612 -0.03141265 -0.021051347 0.0027484405
0.021085287 0.08328304 -0.037802543 0.14510743 -0.004127595 -0.062635414 0.057777714 0.07030735
-0.058890954 0.07014114 0.03550788 0.13095246 -0.071301214 0.022596493 0.07399821 0.008026631
0.10846249 0.11411759 -0.1438839 -0.10041453 0.1251862 -0.07265062 0.029063175 0.05131623
-0.007089249 0.054201968 0.050202712 -0.03775566 -0.04949518 -0.0014056888 -0.032050896 -0.046700664
0.033630192 0.1386461 0.02052139 0.13383166 0.1071938 0.08954939 -0.078216985 0.05763734
-0.06942519 -0.05396823 0.07374435 0.050425272 0.0036285801 0.03344354 0.011330469 -0.0039944057
0.2872813 0.10794785 -0.028230928 0.0408904 -0.0981258 0.03172587 -0.017832078 0.07370895
-0.0066386075 0.13532375 -0.08223724 -0.028971147 -0.0043989522 0.019924145 -0.04535577 0.04885747
0.002375875 -0.08648157 0.08190428 0.06669247 0.028313508 -0.045282118 -0.10548252 -0.07031071
0.009803299 0.08544838 -0.04958678 0.035263535 0.08069197 0.02192025 -0.06999887 0.071501836
-0.051164135 -0.025835283 -0.124303766 0.06793556 0.045870934 -0.13238531 0.14778632 -0.0028071122
-0.06259023 0.035003435 0.021937842 -0.2258537 -0.06870278 -0.019552838 -0.08140036 0.0503253
-0.04617742 -0.0989811 0.0639741 -0.024464142 -0.15007041 0.0717112 -0.043818478 0.0074210432
-0.039718278 0.057121314 0.06253338 0.07458188 -0.05000805 0.030792506 0.10415893 0.022317966
-0.215649 0.10434351 0.013692133 -0.015869694 -0.056080546 2.4957933e-05 0.049651135 -0.1416186
0.0622214 -0.005666602 0.11452208 0.034746192 -0.032586433 -0.033448778 -0.0062344614 -0.030691065

log_std.bias f4 [6]
00000000: d8cf efbf aa24 e5bf 0686 c7bf 5609 c8bf
00000010: 25c2 02c0 4088 e1bf
-1.8735304 -1.7901814 -1.5587776 -1.5627849 -2.0430996 -1.7619705
